{"format": "graph-model", "generatedBy": "2.14.0", "convertedBy": "TensorFlow.js Converter v4.14.0", "signature": {"inputs": {"MobilenetV3large_input": {"name": "mobilenetv3large_input:0", "dtype": "DT_FLOAT", "tensorShape": {"dim": [{"size": "-1"}, {"size": "224"}, {"size": "224"}, {"size": "3"}]}}}, "outputs": {"dense": {"name": "Identity:0", "dtype": "DT_FLOAT", "tensorShape": {"dim": [{"size": "-1"}, {"size": "14"}]}}}}, "modelTopology": {"node": [{"name": "StatefulPartitionedCall/sequential/MobilenetV3large/tf.math.multiply_27/Mul/y", "op": "Const", "attr": {"value": {"tensor": {"dtype": "DT_FLOAT", "tensorShape": {}}}, "dtype": {"type": "DT_FLOAT"}}}, {"name": "StatefulPartitionedCall/sequential/MobilenetV3large/tf.math.multiply_26/Mul/y", "op": "Const", "attr": {"dtype": {"type": "DT_FLOAT"}, "value": {"tensor": {"dtype": "DT_FLOAT", "tensorShape": {}}}}}, {"name": "StatefulPartitionedCall/sequential/MobilenetV3large/expanded_conv_14/squeeze_excite/AvgPool/Mean/reduction_indices", "op": "Const", "attr": {"dtype": {"type": "DT_INT32"}, "value": {"tensor": {"dtype": "DT_INT32", "tensorShape": {"dim": [{"size": "2"}]}}}}}, {"name": "StatefulPartitionedCall/sequential/MobilenetV3large/expanded_conv_14/squeeze_excite/Conv/Conv2D/ReadVariableOp", "op": "Const", "attr": {"dtype": {"type": "DT_FLOAT"}, "value": {"tensor": {"dtype": "DT_FLOAT", "tensorShape": {"dim": [{"size": "1"}, {"size": "1"}, {"size": "960"}, {"size": "240"}]}}}}}, {"name": "StatefulPartitionedCall/sequential/MobilenetV3large/expanded_conv_14/squeeze_excite/Conv/BiasAdd/ReadVariableOp", "op": "Const", "attr": {"value": {"tensor": {"dtype": "DT_FLOAT", "tensorShape": {"dim": [{"size": "240"}]}}}, "dtype": {"type": "DT_FLOAT"}}}, {"name": "StatefulPartitionedCall/sequential/MobilenetV3large/expanded_conv_14/squeeze_excite/Conv_1/Conv2D/ReadVariableOp", "op": "Const", "attr": {"dtype": {"type": "DT_FLOAT"}, "value": {"tensor": {"dtype": "DT_FLOAT", "tensorShape": {"dim": [{"size": "1"}, {"size": "1"}, {"size": "240"}, {"size": "960"}]}}}}}, {"name": "StatefulPartitionedCall/sequential/MobilenetV3large/expanded_conv_14/squeeze_excite/Conv_1/BiasAdd/ReadVariableOp", "op": "Const", "attr": {"dtype": {"type": "DT_FLOAT"}, "value": {"tensor": {"dtype": "DT_FLOAT", "tensorShape": {"dim": [{"size": "960"}]}}}}}, {"name": "unknown_277", "op": "Const", "attr": {"dtype": {"type": "DT_FLOAT"}, "value": {"tensor": {"dtype": "DT_FLOAT", "tensorShape": {}}}}}, {"name": "StatefulPartitionedCall/sequential/MobilenetV3large/tf.math.multiply_25/Mul/y", "op": "Const", "attr": {"value": {"tensor": {"dtype": "DT_FLOAT", "tensorShape": {}}}, "dtype": {"type": "DT_FLOAT"}}}, {"name": "StatefulPartitionedCall/sequential/MobilenetV3large/tf.math.multiply_24/Mul/y", "op": "Const", "attr": {"value": {"tensor": {"dtype": "DT_FLOAT", "tensorShape": {}}}, "dtype": {"type": "DT_FLOAT"}}}, {"name": "StatefulPartitionedCall/sequential/MobilenetV3large/tf.math.multiply_23/Mul/y", "op": "Const", "attr": {"dtype": {"type": "DT_FLOAT"}, "value": {"tensor": {"dtype": "DT_FLOAT", "tensorShape": {}}}}}, {"name": "StatefulPartitionedCall/sequential/MobilenetV3large/expanded_conv_13/squeeze_excite/AvgPool/Mean/reduction_indices", "op": "Const", "attr": {"value": {"tensor": {"dtype": "DT_INT32", "tensorShape": {"dim": [{"size": "2"}]}}}, "dtype": {"type": "DT_INT32"}}}, {"name": "StatefulPartitionedCall/sequential/MobilenetV3large/expanded_conv_13/squeeze_excite/Conv/Conv2D/ReadVariableOp", "op": "Const", "attr": {"value": {"tensor": {"dtype": "DT_FLOAT", "tensorShape": {"dim": [{"size": "1"}, {"size": "1"}, {"size": "960"}, {"size": "240"}]}}}, "dtype": {"type": "DT_FLOAT"}}}, {"name": "StatefulPartitionedCall/sequential/MobilenetV3large/expanded_conv_13/squeeze_excite/Conv/BiasAdd/ReadVariableOp", "op": "Const", "attr": {"dtype": {"type": "DT_FLOAT"}, "value": {"tensor": {"dtype": "DT_FLOAT", "tensorShape": {"dim": [{"size": "240"}]}}}}}, {"name": "StatefulPartitionedCall/sequential/MobilenetV3large/expanded_conv_13/squeeze_excite/Conv_1/Conv2D/ReadVariableOp", "op": "Const", "attr": {"dtype": {"type": "DT_FLOAT"}, "value": {"tensor": {"dtype": "DT_FLOAT", "tensorShape": {"dim": [{"size": "1"}, {"size": "1"}, {"size": "240"}, {"size": "960"}]}}}}}, {"name": "StatefulPartitionedCall/sequential/MobilenetV3large/expanded_conv_13/squeeze_excite/Conv_1/BiasAdd/ReadVariableOp", "op": "Const", "attr": {"dtype": {"type": "DT_FLOAT"}, "value": {"tensor": {"dtype": "DT_FLOAT", "tensorShape": {"dim": [{"size": "960"}]}}}}}, {"name": "unknown_255", "op": "Const", "attr": {"value": {"tensor": {"dtype": "DT_FLOAT", "tensorShape": {}}}, "dtype": {"type": "DT_FLOAT"}}}, {"name": "StatefulPartitionedCall/sequential/MobilenetV3large/tf.math.multiply_22/Mul/y", "op": "Const", "attr": {"dtype": {"type": "DT_FLOAT"}, "value": {"tensor": {"dtype": "DT_FLOAT", "tensorShape": {}}}}}, {"name": "StatefulPartitionedCall/sequential/MobilenetV3large/tf.math.multiply_21/Mul/y", "op": "Const", "attr": {"dtype": {"type": "DT_FLOAT"}, "value": {"tensor": {"dtype": "DT_FLOAT", "tensorShape": {}}}}}, {"name": "StatefulPartitionedCall/sequential/MobilenetV3large/tf.math.multiply_20/Mul/y", "op": "Const", "attr": {"dtype": {"type": "DT_FLOAT"}, "value": {"tensor": {"dtype": "DT_FLOAT", "tensorShape": {}}}}}, {"name": "StatefulPartitionedCall/sequential/MobilenetV3large/expanded_conv_12/squeeze_excite/AvgPool/Mean/reduction_indices", "op": "Const", "attr": {"dtype": {"type": "DT_INT32"}, "value": {"tensor": {"dtype": "DT_INT32", "tensorShape": {"dim": [{"size": "2"}]}}}}}, {"name": "StatefulPartitionedCall/sequential/MobilenetV3large/expanded_conv_12/squeeze_excite/Conv/Conv2D/ReadVariableOp", "op": "Const", "attr": {"dtype": {"type": "DT_FLOAT"}, "value": {"tensor": {"dtype": "DT_FLOAT", "tensorShape": {"dim": [{"size": "1"}, {"size": "1"}, {"size": "672"}, {"size": "168"}]}}}}}, {"name": "StatefulPartitionedCall/sequential/MobilenetV3large/expanded_conv_12/squeeze_excite/Conv/BiasAdd/ReadVariableOp", "op": "Const", "attr": {"value": {"tensor": {"dtype": "DT_FLOAT", "tensorShape": {"dim": [{"size": "168"}]}}}, "dtype": {"type": "DT_FLOAT"}}}, {"name": "StatefulPartitionedCall/sequential/MobilenetV3large/expanded_conv_12/squeeze_excite/Conv_1/Conv2D/ReadVariableOp", "op": "Const", "attr": {"value": {"tensor": {"dtype": "DT_FLOAT", "tensorShape": {"dim": [{"size": "1"}, {"size": "1"}, {"size": "168"}, {"size": "672"}]}}}, "dtype": {"type": "DT_FLOAT"}}}, {"name": "StatefulPartitionedCall/sequential/MobilenetV3large/expanded_conv_12/squeeze_excite/Conv_1/BiasAdd/ReadVariableOp", "op": "Const", "attr": {"dtype": {"type": "DT_FLOAT"}, "value": {"tensor": {"dtype": "DT_FLOAT", "tensorShape": {"dim": [{"size": "672"}]}}}}}, {"name": "unknown_233", "op": "Const", "attr": {"dtype": {"type": "DT_FLOAT"}, "value": {"tensor": {"dtype": "DT_FLOAT", "tensorShape": {}}}}}, {"name": "StatefulPartitionedCall/sequential/MobilenetV3large/tf.math.multiply_19/Mul/y", "op": "Const", "attr": {"dtype": {"type": "DT_FLOAT"}, "value": {"tensor": {"dtype": "DT_FLOAT", "tensorShape": {}}}}}, {"name": "StatefulPartitionedCall/sequential/MobilenetV3large/tf.math.multiply_18/Mul/y", "op": "Const", "attr": {"value": {"tensor": {"dtype": "DT_FLOAT", "tensorShape": {}}}, "dtype": {"type": "DT_FLOAT"}}}, {"name": "StatefulPartitionedCall/sequential/MobilenetV3large/tf.math.multiply_17/Mul/y", "op": "Const", "attr": {"value": {"tensor": {"dtype": "DT_FLOAT", "tensorShape": {}}}, "dtype": {"type": "DT_FLOAT"}}}, {"name": "StatefulPartitionedCall/sequential/MobilenetV3large/expanded_conv_11/squeeze_excite/AvgPool/Mean/reduction_indices", "op": "Const", "attr": {"dtype": {"type": "DT_INT32"}, "value": {"tensor": {"dtype": "DT_INT32", "tensorShape": {"dim": [{"size": "2"}]}}}}}, {"name": "StatefulPartitionedCall/sequential/MobilenetV3large/expanded_conv_11/squeeze_excite/Conv/Conv2D/ReadVariableOp", "op": "Const", "attr": {"value": {"tensor": {"dtype": "DT_FLOAT", "tensorShape": {"dim": [{"size": "1"}, {"size": "1"}, {"size": "672"}, {"size": "168"}]}}}, "dtype": {"type": "DT_FLOAT"}}}, {"name": "StatefulPartitionedCall/sequential/MobilenetV3large/expanded_conv_11/squeeze_excite/Conv/BiasAdd/ReadVariableOp", "op": "Const", "attr": {"value": {"tensor": {"dtype": "DT_FLOAT", "tensorShape": {"dim": [{"size": "168"}]}}}, "dtype": {"type": "DT_FLOAT"}}}, {"name": "StatefulPartitionedCall/sequential/MobilenetV3large/expanded_conv_11/squeeze_excite/Conv_1/Conv2D/ReadVariableOp", "op": "Const", "attr": {"dtype": {"type": "DT_FLOAT"}, "value": {"tensor": {"dtype": "DT_FLOAT", "tensorShape": {"dim": [{"size": "1"}, {"size": "1"}, {"size": "168"}, {"size": "672"}]}}}}}, {"name": "StatefulPartitionedCall/sequential/MobilenetV3large/expanded_conv_11/squeeze_excite/Conv_1/BiasAdd/ReadVariableOp", "op": "Const", "attr": {"dtype": {"type": "DT_FLOAT"}, "value": {"tensor": {"dtype": "DT_FLOAT", "tensorShape": {"dim": [{"size": "672"}]}}}}}, {"name": "unknown_211", "op": "Const", "attr": {"value": {"tensor": {"dtype": "DT_FLOAT", "tensorShape": {}}}, "dtype": {"type": "DT_FLOAT"}}}, {"name": "StatefulPartitionedCall/sequential/MobilenetV3large/tf.math.multiply_16/Mul/y", "op": "Const", "attr": {"dtype": {"type": "DT_FLOAT"}, "value": {"tensor": {"dtype": "DT_FLOAT", "tensorShape": {}}}}}, {"name": "StatefulPartitionedCall/sequential/MobilenetV3large/tf.math.multiply_15/Mul/y", "op": "Const", "attr": {"dtype": {"type": "DT_FLOAT"}, "value": {"tensor": {"dtype": "DT_FLOAT", "tensorShape": {}}}}}, {"name": "StatefulPartitionedCall/sequential/MobilenetV3large/tf.math.multiply_14/Mul/y", "op": "Const", "attr": {"value": {"tensor": {"dtype": "DT_FLOAT", "tensorShape": {}}}, "dtype": {"type": "DT_FLOAT"}}}, {"name": "StatefulPartitionedCall/sequential/MobilenetV3large/expanded_conv_10/squeeze_excite/AvgPool/Mean/reduction_indices", "op": "Const", "attr": {"value": {"tensor": {"dtype": "DT_INT32", "tensorShape": {"dim": [{"size": "2"}]}}}, "dtype": {"type": "DT_INT32"}}}, {"name": "StatefulPartitionedCall/sequential/MobilenetV3large/expanded_conv_10/squeeze_excite/Conv/Conv2D/ReadVariableOp", "op": "Const", "attr": {"dtype": {"type": "DT_FLOAT"}, "value": {"tensor": {"dtype": "DT_FLOAT", "tensorShape": {"dim": [{"size": "1"}, {"size": "1"}, {"size": "480"}, {"size": "120"}]}}}}}, {"name": "StatefulPartitionedCall/sequential/MobilenetV3large/expanded_conv_10/squeeze_excite/Conv/BiasAdd/ReadVariableOp", "op": "Const", "attr": {"dtype": {"type": "DT_FLOAT"}, "value": {"tensor": {"dtype": "DT_FLOAT", "tensorShape": {"dim": [{"size": "120"}]}}}}}, {"name": "StatefulPartitionedCall/sequential/MobilenetV3large/expanded_conv_10/squeeze_excite/Conv_1/Conv2D/ReadVariableOp", "op": "Const", "attr": {"value": {"tensor": {"dtype": "DT_FLOAT", "tensorShape": {"dim": [{"size": "1"}, {"size": "1"}, {"size": "120"}, {"size": "480"}]}}}, "dtype": {"type": "DT_FLOAT"}}}, {"name": "StatefulPartitionedCall/sequential/MobilenetV3large/expanded_conv_10/squeeze_excite/Conv_1/BiasAdd/ReadVariableOp", "op": "Const", "attr": {"dtype": {"type": "DT_FLOAT"}, "value": {"tensor": {"dtype": "DT_FLOAT", "tensorShape": {"dim": [{"size": "480"}]}}}}}, {"name": "unknown_189", "op": "Const", "attr": {"dtype": {"type": "DT_FLOAT"}, "value": {"tensor": {"dtype": "DT_FLOAT", "tensorShape": {}}}}}, {"name": "StatefulPartitionedCall/sequential/MobilenetV3large/tf.math.multiply_13/Mul/y", "op": "Const", "attr": {"value": {"tensor": {"dtype": "DT_FLOAT", "tensorShape": {}}}, "dtype": {"type": "DT_FLOAT"}}}, {"name": "StatefulPartitionedCall/sequential/MobilenetV3large/tf.math.multiply_12/Mul/y", "op": "Const", "attr": {"dtype": {"type": "DT_FLOAT"}, "value": {"tensor": {"dtype": "DT_FLOAT", "tensorShape": {}}}}}, {"name": "StatefulPartitionedCall/sequential/MobilenetV3large/tf.math.multiply_11/Mul/y", "op": "Const", "attr": {"value": {"tensor": {"dtype": "DT_FLOAT", "tensorShape": {}}}, "dtype": {"type": "DT_FLOAT"}}}, {"name": "StatefulPartitionedCall/sequential/MobilenetV3large/tf.math.multiply_10/Mul/y", "op": "Const", "attr": {"value": {"tensor": {"dtype": "DT_FLOAT", "tensorShape": {}}}, "dtype": {"type": "DT_FLOAT"}}}, {"name": "StatefulPartitionedCall/sequential/MobilenetV3large/tf.math.multiply_9/Mul/y", "op": "Const", "attr": {"dtype": {"type": "DT_FLOAT"}, "value": {"tensor": {"dtype": "DT_FLOAT", "tensorShape": {}}}}}, {"name": "StatefulPartitionedCall/sequential/MobilenetV3large/tf.math.multiply_8/Mul/y", "op": "Const", "attr": {"dtype": {"type": "DT_FLOAT"}, "value": {"tensor": {"dtype": "DT_FLOAT", "tensorShape": {}}}}}, {"name": "StatefulPartitionedCall/sequential/MobilenetV3large/tf.math.multiply_7/Mul/y", "op": "Const", "attr": {"dtype": {"type": "DT_FLOAT"}, "value": {"tensor": {"dtype": "DT_FLOAT", "tensorShape": {}}}}}, {"name": "StatefulPartitionedCall/sequential/MobilenetV3large/tf.math.multiply_6/Mul/y", "op": "Const", "attr": {"value": {"tensor": {"dtype": "DT_FLOAT", "tensorShape": {}}}, "dtype": {"type": "DT_FLOAT"}}}, {"name": "StatefulPartitionedCall/sequential/MobilenetV3large/tf.math.multiply_5/Mul/y", "op": "Const", "attr": {"value": {"tensor": {"dtype": "DT_FLOAT", "tensorShape": {}}}, "dtype": {"type": "DT_FLOAT"}}}, {"name": "StatefulPartitionedCall/sequential/MobilenetV3large/tf.math.multiply_4/Mul/y", "op": "Const", "attr": {"value": {"tensor": {"dtype": "DT_FLOAT", "tensorShape": {}}}, "dtype": {"type": "DT_FLOAT"}}}, {"name": "StatefulPartitionedCall/sequential/MobilenetV3large/tf.math.multiply_3/Mul/y", "op": "Const", "attr": {"value": {"tensor": {"dtype": "DT_FLOAT", "tensorShape": {}}}, "dtype": {"type": "DT_FLOAT"}}}, {"name": "StatefulPartitionedCall/sequential/MobilenetV3large/expanded_conv_5/squeeze_excite/AvgPool/Mean/reduction_indices", "op": "Const", "attr": {"dtype": {"type": "DT_INT32"}, "value": {"tensor": {"dtype": "DT_INT32", "tensorShape": {"dim": [{"size": "2"}]}}}}}, {"name": "StatefulPartitionedCall/sequential/MobilenetV3large/expanded_conv_5/squeeze_excite/Conv/Conv2D/ReadVariableOp", "op": "Const", "attr": {"value": {"tensor": {"dtype": "DT_FLOAT", "tensorShape": {"dim": [{"size": "1"}, {"size": "1"}, {"size": "120"}, {"size": "32"}]}}}, "dtype": {"type": "DT_FLOAT"}}}, {"name": "StatefulPartitionedCall/sequential/MobilenetV3large/expanded_conv_5/squeeze_excite/Conv/BiasAdd/ReadVariableOp", "op": "Const", "attr": {"value": {"tensor": {"dtype": "DT_FLOAT", "tensorShape": {"dim": [{"size": "32"}]}}}, "dtype": {"type": "DT_FLOAT"}}}, {"name": "StatefulPartitionedCall/sequential/MobilenetV3large/expanded_conv_5/squeeze_excite/Conv_1/Conv2D/ReadVariableOp", "op": "Const", "attr": {"dtype": {"type": "DT_FLOAT"}, "value": {"tensor": {"dtype": "DT_FLOAT", "tensorShape": {"dim": [{"size": "1"}, {"size": "1"}, {"size": "32"}, {"size": "120"}]}}}}}, {"name": "StatefulPartitionedCall/sequential/MobilenetV3large/expanded_conv_5/squeeze_excite/Conv_1/BiasAdd/ReadVariableOp", "op": "Const", "attr": {"value": {"tensor": {"dtype": "DT_FLOAT", "tensorShape": {"dim": [{"size": "120"}]}}}, "dtype": {"type": "DT_FLOAT"}}}, {"name": "unknown_99", "op": "Const", "attr": {"dtype": {"type": "DT_FLOAT"}, "value": {"tensor": {"dtype": "DT_FLOAT", "tensorShape": {}}}}}, {"name": "StatefulPartitionedCall/sequential/MobilenetV3large/tf.math.multiply_2/Mul/y", "op": "Const", "attr": {"dtype": {"type": "DT_FLOAT"}, "value": {"tensor": {"dtype": "DT_FLOAT", "tensorShape": {}}}}}, {"name": "StatefulPartitionedCall/sequential/MobilenetV3large/expanded_conv_4/squeeze_excite/AvgPool/Mean/reduction_indices", "op": "Const", "attr": {"dtype": {"type": "DT_INT32"}, "value": {"tensor": {"dtype": "DT_INT32", "tensorShape": {"dim": [{"size": "2"}]}}}}}, {"name": "StatefulPartitionedCall/sequential/MobilenetV3large/expanded_conv_4/squeeze_excite/Conv/Conv2D/ReadVariableOp", "op": "Const", "attr": {"value": {"tensor": {"dtype": "DT_FLOAT", "tensorShape": {"dim": [{"size": "1"}, {"size": "1"}, {"size": "120"}, {"size": "32"}]}}}, "dtype": {"type": "DT_FLOAT"}}}, {"name": "StatefulPartitionedCall/sequential/MobilenetV3large/expanded_conv_4/squeeze_excite/Conv/BiasAdd/ReadVariableOp", "op": "Const", "attr": {"value": {"tensor": {"dtype": "DT_FLOAT", "tensorShape": {"dim": [{"size": "32"}]}}}, "dtype": {"type": "DT_FLOAT"}}}, {"name": "StatefulPartitionedCall/sequential/MobilenetV3large/expanded_conv_4/squeeze_excite/Conv_1/Conv2D/ReadVariableOp", "op": "Const", "attr": {"value": {"tensor": {"dtype": "DT_FLOAT", "tensorShape": {"dim": [{"size": "1"}, {"size": "1"}, {"size": "32"}, {"size": "120"}]}}}, "dtype": {"type": "DT_FLOAT"}}}, {"name": "StatefulPartitionedCall/sequential/MobilenetV3large/expanded_conv_4/squeeze_excite/Conv_1/BiasAdd/ReadVariableOp", "op": "Const", "attr": {"value": {"tensor": {"dtype": "DT_FLOAT", "tensorShape": {"dim": [{"size": "120"}]}}}, "dtype": {"type": "DT_FLOAT"}}}, {"name": "unknown_79", "op": "Const", "attr": {"value": {"tensor": {"dtype": "DT_FLOAT", "tensorShape": {}}}, "dtype": {"type": "DT_FLOAT"}}}, {"name": "StatefulPartitionedCall/sequential/MobilenetV3large/tf.math.multiply_1/Mul/y", "op": "Const", "attr": {"value": {"tensor": {"dtype": "DT_FLOAT", "tensorShape": {}}}, "dtype": {"type": "DT_FLOAT"}}}, {"name": "StatefulPartitionedCall/sequential/MobilenetV3large/expanded_conv_3/squeeze_excite/AvgPool/Mean/reduction_indices", "op": "Const", "attr": {"dtype": {"type": "DT_INT32"}, "value": {"tensor": {"dtype": "DT_INT32", "tensorShape": {"dim": [{"size": "2"}]}}}}}, {"name": "StatefulPartitionedCall/sequential/MobilenetV3large/expanded_conv_3/squeeze_excite/Conv/Conv2D/ReadVariableOp", "op": "Const", "attr": {"dtype": {"type": "DT_FLOAT"}, "value": {"tensor": {"dtype": "DT_FLOAT", "tensorShape": {"dim": [{"size": "1"}, {"size": "1"}, {"size": "72"}, {"size": "24"}]}}}}}, {"name": "StatefulPartitionedCall/sequential/MobilenetV3large/expanded_conv_3/squeeze_excite/Conv/BiasAdd/ReadVariableOp", "op": "Const", "attr": {"dtype": {"type": "DT_FLOAT"}, "value": {"tensor": {"dtype": "DT_FLOAT", "tensorShape": {"dim": [{"size": "24"}]}}}}}, {"name": "StatefulPartitionedCall/sequential/MobilenetV3large/expanded_conv_3/squeeze_excite/Conv_1/Conv2D/ReadVariableOp", "op": "Const", "attr": {"dtype": {"type": "DT_FLOAT"}, "value": {"tensor": {"dtype": "DT_FLOAT", "tensorShape": {"dim": [{"size": "1"}, {"size": "1"}, {"size": "24"}, {"size": "72"}]}}}}}, {"name": "StatefulPartitionedCall/sequential/MobilenetV3large/expanded_conv_3/squeeze_excite/Conv_1/BiasAdd/ReadVariableOp", "op": "Const", "attr": {"value": {"tensor": {"dtype": "DT_FLOAT", "tensorShape": {"dim": [{"size": "72"}]}}}, "dtype": {"type": "DT_FLOAT"}}}, {"name": "unknown_59", "op": "Const", "attr": {"value": {"tensor": {"dtype": "DT_FLOAT", "tensorShape": {}}}, "dtype": {"type": "DT_FLOAT"}}}, {"name": "StatefulPartitionedCall/sequential/MobilenetV3large/tf.math.multiply/Mul/y", "op": "Const", "attr": {"dtype": {"type": "DT_FLOAT"}, "value": {"tensor": {"dtype": "DT_FLOAT", "tensorShape": {}}}}}, {"name": "StatefulPartitionedCall/sequential/MobilenetV3large/rescaling/Cast/x", "op": "Const", "attr": {"value": {"tensor": {"dtype": "DT_FLOAT", "tensorShape": {}}}, "dtype": {"type": "DT_FLOAT"}}}, {"name": "StatefulPartitionedCall/sequential/MobilenetV3large/rescaling/Cast_1/x", "op": "Const", "attr": {"dtype": {"type": "DT_FLOAT"}, "value": {"tensor": {"dtype": "DT_FLOAT", "tensorShape": {}}}}}, {"name": "unknown_4", "op": "Const", "attr": {"value": {"tensor": {"dtype": "DT_FLOAT", "tensorShape": {}}}, "dtype": {"type": "DT_FLOAT"}}}, {"name": "StatefulPartitionedCall/sequential/MobilenetV3large/expanded_conv_1/depthwise/pad/Pad/paddings", "op": "Const", "attr": {"value": {"tensor": {"dtype": "DT_INT32", "tensorShape": {"dim": [{"size": "4"}, {"size": "2"}]}}}, "dtype": {"type": "DT_INT32"}}}, {"name": "StatefulPartitionedCall/sequential/MobilenetV3large/expanded_conv_3/depthwise/pad/Pad/paddings", "op": "Const", "attr": {"value": {"tensor": {"dtype": "DT_INT32", "tensorShape": {"dim": [{"size": "4"}, {"size": "2"}]}}}, "dtype": {"type": "DT_INT32"}}}, {"name": "unknown_110", "op": "Const", "attr": {"value": {"tensor": {"dtype": "DT_FLOAT", "tensorShape": {}}}, "dtype": {"type": "DT_FLOAT"}}}, {"name": "StatefulPartitionedCall/sequential/MobilenetV3large/expanded_conv_6/depthwise/pad/Pad/paddings", "op": "Const", "attr": {"dtype": {"type": "DT_INT32"}, "value": {"tensor": {"dtype": "DT_INT32", "tensorShape": {"dim": [{"size": "4"}, {"size": "2"}]}}}}}, {"name": "unknown_116", "op": "Const", "attr": {"dtype": {"type": "DT_FLOAT"}, "value": {"tensor": {"dtype": "DT_FLOAT", "tensorShape": {}}}}}, {"name": "unknown_127", "op": "Const", "attr": {"value": {"tensor": {"dtype": "DT_FLOAT", "tensorShape": {}}}, "dtype": {"type": "DT_FLOAT"}}}, {"name": "unknown_133", "op": "Const", "attr": {"value": {"tensor": {"dtype": "DT_FLOAT", "tensorShape": {}}}, "dtype": {"type": "DT_FLOAT"}}}, {"name": "unknown_144", "op": "Const", "attr": {"value": {"tensor": {"dtype": "DT_FLOAT", "tensorShape": {}}}, "dtype": {"type": "DT_FLOAT"}}}, {"name": "unknown_150", "op": "Const", "attr": {"dtype": {"type": "DT_FLOAT"}, "value": {"tensor": {"dtype": "DT_FLOAT", "tensorShape": {}}}}}, {"name": "unknown_161", "op": "Const", "attr": {"dtype": {"type": "DT_FLOAT"}, "value": {"tensor": {"dtype": "DT_FLOAT", "tensorShape": {}}}}}, {"name": "unknown_167", "op": "Const", "attr": {"dtype": {"type": "DT_FLOAT"}, "value": {"tensor": {"dtype": "DT_FLOAT", "tensorShape": {}}}}}, {"name": "unknown_178", "op": "Const", "attr": {"dtype": {"type": "DT_FLOAT"}, "value": {"tensor": {"dtype": "DT_FLOAT", "tensorShape": {}}}}}, {"name": "unknown_184", "op": "Const", "attr": {"dtype": {"type": "DT_FLOAT"}, "value": {"tensor": {"dtype": "DT_FLOAT", "tensorShape": {}}}}}, {"name": "unknown_200", "op": "Const", "attr": {"dtype": {"type": "DT_FLOAT"}, "value": {"tensor": {"dtype": "DT_FLOAT", "tensorShape": {}}}}}, {"name": "unknown_206", "op": "Const", "attr": {"value": {"tensor": {"dtype": "DT_FLOAT", "tensorShape": {}}}, "dtype": {"type": "DT_FLOAT"}}}, {"name": "unknown_222", "op": "Const", "attr": {"dtype": {"type": "DT_FLOAT"}, "value": {"tensor": {"dtype": "DT_FLOAT", "tensorShape": {}}}}}, {"name": "StatefulPartitionedCall/sequential/MobilenetV3large/expanded_conv_12/depthwise/pad/Pad/paddings", "op": "Const", "attr": {"value": {"tensor": {"dtype": "DT_INT32", "tensorShape": {"dim": [{"size": "4"}, {"size": "2"}]}}}, "dtype": {"type": "DT_INT32"}}}, {"name": "unknown_228", "op": "Const", "attr": {"dtype": {"type": "DT_FLOAT"}, "value": {"tensor": {"dtype": "DT_FLOAT", "tensorShape": {}}}}}, {"name": "unknown_244", "op": "Const", "attr": {"value": {"tensor": {"dtype": "DT_FLOAT", "tensorShape": {}}}, "dtype": {"type": "DT_FLOAT"}}}, {"name": "unknown_250", "op": "Const", "attr": {"dtype": {"type": "DT_FLOAT"}, "value": {"tensor": {"dtype": "DT_FLOAT", "tensorShape": {}}}}}, {"name": "unknown_266", "op": "Const", "attr": {"value": {"tensor": {"dtype": "DT_FLOAT", "tensorShape": {}}}, "dtype": {"type": "DT_FLOAT"}}}, {"name": "unknown_272", "op": "Const", "attr": {"value": {"tensor": {"dtype": "DT_FLOAT", "tensorShape": {}}}, "dtype": {"type": "DT_FLOAT"}}}, {"name": "unknown_288", "op": "Const", "attr": {"dtype": {"type": "DT_FLOAT"}, "value": {"tensor": {"dtype": "DT_FLOAT", "tensorShape": {}}}}}, {"name": "StatefulPartitionedCall/sequential/conv2d/Conv2D/ReadVariableOp", "op": "Const", "attr": {"value": {"tensor": {"dtype": "DT_FLOAT", "tensorShape": {"dim": [{"size": "3"}, {"size": "3"}, {"size": "960"}, {"size": "64"}]}}}, "dtype": {"type": "DT_FLOAT"}}}, {"name": "StatefulPartitionedCall/sequential/conv2d/BiasAdd/ReadVariableOp", "op": "Const", "attr": {"dtype": {"type": "DT_FLOAT"}, "value": {"tensor": {"dtype": "DT_FLOAT", "tensorShape": {"dim": [{"size": "64"}]}}}}}, {"name": "StatefulPartitionedCall/sequential/flatten/Const", "op": "Const", "attr": {"dtype": {"type": "DT_INT32"}, "value": {"tensor": {"dtype": "DT_INT32", "tensorShape": {"dim": [{"size": "2"}]}}}}}, {"name": "StatefulPartitionedCall/sequential/dense/MatMul/ReadVariableOp", "op": "Const", "attr": {"dtype": {"type": "DT_FLOAT"}, "value": {"tensor": {"dtype": "DT_FLOAT", "tensorShape": {"dim": [{"size": "256"}, {"size": "14"}]}}}}}, {"name": "StatefulPartitionedCall/sequential/dense/BiasAdd/ReadVariableOp", "op": "Const", "attr": {"dtype": {"type": "DT_FLOAT"}, "value": {"tensor": {"dtype": "DT_FLOAT", "tensorShape": {"dim": [{"size": "14"}]}}}}}, {"name": "mobilenetv3large_input", "op": "Placeholder", "attr": {"dtype": {"type": "DT_FLOAT"}, "shape": {"shape": {"dim": [{"size": "-1"}, {"size": "224"}, {"size": "224"}, {"size": "3"}]}}}}, {"name": "StatefulPartitionedCall/sequential/MobilenetV3large/Conv/Conv2D_weights", "op": "Const", "attr": {"dtype": {"type": "DT_FLOAT"}, "value": {"tensor": {"dtype": "DT_FLOAT", "tensorShape": {"dim": [{"size": "3"}, {"size": "3"}, {"size": "3"}, {"size": "16"}]}}}}}, {"name": "StatefulPartitionedCall/sequential/MobilenetV3large/Conv/Conv2D_bn_offset", "op": "Const", "attr": {"value": {"tensor": {"dtype": "DT_FLOAT", "tensorShape": {"dim": [{"size": "16"}]}}}, "dtype": {"type": "DT_FLOAT"}}}, {"name": "StatefulPartitionedCall/sequential/MobilenetV3large/expanded_conv/depthwise/depthwise_weights", "op": "Const", "attr": {"value": {"tensor": {"dtype": "DT_FLOAT", "tensorShape": {"dim": [{"size": "3"}, {"size": "3"}, {"size": "16"}, {"size": "1"}]}}}, "dtype": {"type": "DT_FLOAT"}}}, {"name": "StatefulPartitionedCall/sequential/MobilenetV3large/expanded_conv/depthwise/depthwise_bn_offset", "op": "Const", "attr": {"value": {"tensor": {"dtype": "DT_FLOAT", "tensorShape": {"dim": [{"size": "16"}]}}}, "dtype": {"type": "DT_FLOAT"}}}, {"name": "StatefulPartitionedCall/sequential/MobilenetV3large/expanded_conv/project/Conv2D_weights", "op": "Const", "attr": {"value": {"tensor": {"dtype": "DT_FLOAT", "tensorShape": {"dim": [{"size": "1"}, {"size": "1"}, {"size": "16"}, {"size": "16"}]}}}, "dtype": {"type": "DT_FLOAT"}}}, {"name": "StatefulPartitionedCall/sequential/MobilenetV3large/expanded_conv/project/Conv2D_bn_offset", "op": "Const", "attr": {"dtype": {"type": "DT_FLOAT"}, "value": {"tensor": {"dtype": "DT_FLOAT", "tensorShape": {"dim": [{"size": "16"}]}}}}}, {"name": "StatefulPartitionedCall/sequential/MobilenetV3large/expanded_conv_1/expand/Conv2D_weights", "op": "Const", "attr": {"value": {"tensor": {"dtype": "DT_FLOAT", "tensorShape": {"dim": [{"size": "1"}, {"size": "1"}, {"size": "16"}, {"size": "64"}]}}}, "dtype": {"type": "DT_FLOAT"}}}, {"name": "StatefulPartitionedCall/sequential/MobilenetV3large/expanded_conv_1/expand/Conv2D_bn_offset", "op": "Const", "attr": {"dtype": {"type": "DT_FLOAT"}, "value": {"tensor": {"dtype": "DT_FLOAT", "tensorShape": {"dim": [{"size": "64"}]}}}}}, {"name": "StatefulPartitionedCall/sequential/MobilenetV3large/expanded_conv_1/depthwise/depthwise_weights", "op": "Const", "attr": {"value": {"tensor": {"dtype": "DT_FLOAT", "tensorShape": {"dim": [{"size": "3"}, {"size": "3"}, {"size": "64"}, {"size": "1"}]}}}, "dtype": {"type": "DT_FLOAT"}}}, {"name": "StatefulPartitionedCall/sequential/MobilenetV3large/expanded_conv_1/depthwise/depthwise_bn_offset", "op": "Const", "attr": {"dtype": {"type": "DT_FLOAT"}, "value": {"tensor": {"dtype": "DT_FLOAT", "tensorShape": {"dim": [{"size": "64"}]}}}}}, {"name": "StatefulPartitionedCall/sequential/MobilenetV3large/expanded_conv_1/project/Conv2D_weights", "op": "Const", "attr": {"value": {"tensor": {"dtype": "DT_FLOAT", "tensorShape": {"dim": [{"size": "1"}, {"size": "1"}, {"size": "64"}, {"size": "24"}]}}}, "dtype": {"type": "DT_FLOAT"}}}, {"name": "StatefulPartitionedCall/sequential/MobilenetV3large/expanded_conv_1/project/Conv2D_bn_offset", "op": "Const", "attr": {"dtype": {"type": "DT_FLOAT"}, "value": {"tensor": {"dtype": "DT_FLOAT", "tensorShape": {"dim": [{"size": "24"}]}}}}}, {"name": "StatefulPartitionedCall/sequential/MobilenetV3large/expanded_conv_2/expand/Conv2D_weights", "op": "Const", "attr": {"value": {"tensor": {"dtype": "DT_FLOAT", "tensorShape": {"dim": [{"size": "1"}, {"size": "1"}, {"size": "24"}, {"size": "72"}]}}}, "dtype": {"type": "DT_FLOAT"}}}, {"name": "StatefulPartitionedCall/sequential/MobilenetV3large/expanded_conv_2/expand/Conv2D_bn_offset", "op": "Const", "attr": {"dtype": {"type": "DT_FLOAT"}, "value": {"tensor": {"dtype": "DT_FLOAT", "tensorShape": {"dim": [{"size": "72"}]}}}}}, {"name": "StatefulPartitionedCall/sequential/MobilenetV3large/expanded_conv_2/depthwise/depthwise_weights", "op": "Const", "attr": {"value": {"tensor": {"dtype": "DT_FLOAT", "tensorShape": {"dim": [{"size": "3"}, {"size": "3"}, {"size": "72"}, {"size": "1"}]}}}, "dtype": {"type": "DT_FLOAT"}}}, {"name": "StatefulPartitionedCall/sequential/MobilenetV3large/expanded_conv_2/depthwise/depthwise_bn_offset", "op": "Const", "attr": {"dtype": {"type": "DT_FLOAT"}, "value": {"tensor": {"dtype": "DT_FLOAT", "tensorShape": {"dim": [{"size": "72"}]}}}}}, {"name": "StatefulPartitionedCall/sequential/MobilenetV3large/expanded_conv_2/project/Conv2D_weights", "op": "Const", "attr": {"dtype": {"type": "DT_FLOAT"}, "value": {"tensor": {"dtype": "DT_FLOAT", "tensorShape": {"dim": [{"size": "1"}, {"size": "1"}, {"size": "72"}, {"size": "24"}]}}}}}, {"name": "StatefulPartitionedCall/sequential/MobilenetV3large/expanded_conv_2/project/Conv2D_bn_offset", "op": "Const", "attr": {"dtype": {"type": "DT_FLOAT"}, "value": {"tensor": {"dtype": "DT_FLOAT", "tensorShape": {"dim": [{"size": "24"}]}}}}}, {"name": "StatefulPartitionedCall/sequential/MobilenetV3large/expanded_conv_3/expand/Conv2D_weights", "op": "Const", "attr": {"value": {"tensor": {"dtype": "DT_FLOAT", "tensorShape": {"dim": [{"size": "1"}, {"size": "1"}, {"size": "24"}, {"size": "72"}]}}}, "dtype": {"type": "DT_FLOAT"}}}, {"name": "StatefulPartitionedCall/sequential/MobilenetV3large/expanded_conv_3/expand/Conv2D_bn_offset", "op": "Const", "attr": {"value": {"tensor": {"dtype": "DT_FLOAT", "tensorShape": {"dim": [{"size": "72"}]}}}, "dtype": {"type": "DT_FLOAT"}}}, {"name": "StatefulPartitionedCall/sequential/MobilenetV3large/expanded_conv_3/depthwise/depthwise_weights", "op": "Const", "attr": {"dtype": {"type": "DT_FLOAT"}, "value": {"tensor": {"dtype": "DT_FLOAT", "tensorShape": {"dim": [{"size": "5"}, {"size": "5"}, {"size": "72"}, {"size": "1"}]}}}}}, {"name": "StatefulPartitionedCall/sequential/MobilenetV3large/expanded_conv_3/depthwise/depthwise_bn_offset", "op": "Const", "attr": {"dtype": {"type": "DT_FLOAT"}, "value": {"tensor": {"dtype": "DT_FLOAT", "tensorShape": {"dim": [{"size": "72"}]}}}}}, {"name": "StatefulPartitionedCall/sequential/MobilenetV3large/expanded_conv_13/project/Conv2D_weights", "op": "Const", "attr": {"value": {"tensor": {"dtype": "DT_FLOAT", "tensorShape": {"dim": [{"size": "1"}, {"size": "1"}, {"size": "960"}, {"size": "160"}]}}}, "dtype": {"type": "DT_FLOAT"}}}, {"name": "StatefulPartitionedCall/sequential/MobilenetV3large/expanded_conv_13/project/Conv2D_bn_offset", "op": "Const", "attr": {"value": {"tensor": {"dtype": "DT_FLOAT", "tensorShape": {"dim": [{"size": "160"}]}}}, "dtype": {"type": "DT_FLOAT"}}}, {"name": "StatefulPartitionedCall/sequential/MobilenetV3large/expanded_conv_3/project/Conv2D_weights", "op": "Const", "attr": {"dtype": {"type": "DT_FLOAT"}, "value": {"tensor": {"dtype": "DT_FLOAT", "tensorShape": {"dim": [{"size": "1"}, {"size": "1"}, {"size": "72"}, {"size": "40"}]}}}}}, {"name": "StatefulPartitionedCall/sequential/MobilenetV3large/expanded_conv_3/project/Conv2D_bn_offset", "op": "Const", "attr": {"dtype": {"type": "DT_FLOAT"}, "value": {"tensor": {"dtype": "DT_FLOAT", "tensorShape": {"dim": [{"size": "40"}]}}}}}, {"name": "StatefulPartitionedCall/sequential/MobilenetV3large/expanded_conv_4/expand/Conv2D_weights", "op": "Const", "attr": {"dtype": {"type": "DT_FLOAT"}, "value": {"tensor": {"dtype": "DT_FLOAT", "tensorShape": {"dim": [{"size": "1"}, {"size": "1"}, {"size": "40"}, {"size": "120"}]}}}}}, {"name": "StatefulPartitionedCall/sequential/MobilenetV3large/expanded_conv_4/expand/Conv2D_bn_offset", "op": "Const", "attr": {"dtype": {"type": "DT_FLOAT"}, "value": {"tensor": {"dtype": "DT_FLOAT", "tensorShape": {"dim": [{"size": "120"}]}}}}}, {"name": "StatefulPartitionedCall/sequential/MobilenetV3large/expanded_conv_14/expand/Conv2D_weights", "op": "Const", "attr": {"dtype": {"type": "DT_FLOAT"}, "value": {"tensor": {"dtype": "DT_FLOAT", "tensorShape": {"dim": [{"size": "1"}, {"size": "1"}, {"size": "160"}, {"size": "960"}]}}}}}, {"name": "StatefulPartitionedCall/sequential/MobilenetV3large/expanded_conv_4/depthwise/depthwise_weights", "op": "Const", "attr": {"value": {"tensor": {"dtype": "DT_FLOAT", "tensorShape": {"dim": [{"size": "5"}, {"size": "5"}, {"size": "120"}, {"size": "1"}]}}}, "dtype": {"type": "DT_FLOAT"}}}, {"name": "StatefulPartitionedCall/sequential/MobilenetV3large/expanded_conv_4/depthwise/depthwise_bn_offset", "op": "Const", "attr": {"dtype": {"type": "DT_FLOAT"}, "value": {"tensor": {"dtype": "DT_FLOAT", "tensorShape": {"dim": [{"size": "120"}]}}}}}, {"name": "StatefulPartitionedCall/sequential/MobilenetV3large/expanded_conv_14/expand/Conv2D_bn_offset", "op": "Const", "attr": {"value": {"tensor": {"dtype": "DT_FLOAT", "tensorShape": {"dim": [{"size": "960"}]}}}, "dtype": {"type": "DT_FLOAT"}}}, {"name": "StatefulPartitionedCall/sequential/MobilenetV3large/expanded_conv_4/project/Conv2D_weights", "op": "Const", "attr": {"value": {"tensor": {"dtype": "DT_FLOAT", "tensorShape": {"dim": [{"size": "1"}, {"size": "1"}, {"size": "120"}, {"size": "40"}]}}}, "dtype": {"type": "DT_FLOAT"}}}, {"name": "StatefulPartitionedCall/sequential/MobilenetV3large/expanded_conv_4/project/Conv2D_bn_offset", "op": "Const", "attr": {"value": {"tensor": {"dtype": "DT_FLOAT", "tensorShape": {"dim": [{"size": "40"}]}}}, "dtype": {"type": "DT_FLOAT"}}}, {"name": "StatefulPartitionedCall/sequential/MobilenetV3large/expanded_conv_5/expand/Conv2D_weights", "op": "Const", "attr": {"dtype": {"type": "DT_FLOAT"}, "value": {"tensor": {"dtype": "DT_FLOAT", "tensorShape": {"dim": [{"size": "1"}, {"size": "1"}, {"size": "40"}, {"size": "120"}]}}}}}, {"name": "StatefulPartitionedCall/sequential/MobilenetV3large/expanded_conv_5/expand/Conv2D_bn_offset", "op": "Const", "attr": {"value": {"tensor": {"dtype": "DT_FLOAT", "tensorShape": {"dim": [{"size": "120"}]}}}, "dtype": {"type": "DT_FLOAT"}}}, {"name": "StatefulPartitionedCall/sequential/MobilenetV3large/expanded_conv_5/depthwise/depthwise_weights", "op": "Const", "attr": {"value": {"tensor": {"dtype": "DT_FLOAT", "tensorShape": {"dim": [{"size": "5"}, {"size": "5"}, {"size": "120"}, {"size": "1"}]}}}, "dtype": {"type": "DT_FLOAT"}}}, {"name": "StatefulPartitionedCall/sequential/MobilenetV3large/expanded_conv_5/depthwise/depthwise_bn_offset", "op": "Const", "attr": {"value": {"tensor": {"dtype": "DT_FLOAT", "tensorShape": {"dim": [{"size": "120"}]}}}, "dtype": {"type": "DT_FLOAT"}}}, {"name": "StatefulPartitionedCall/sequential/MobilenetV3large/expanded_conv_14/depthwise/depthwise_weights", "op": "Const", "attr": {"dtype": {"type": "DT_FLOAT"}, "value": {"tensor": {"dtype": "DT_FLOAT", "tensorShape": {"dim": [{"size": "5"}, {"size": "5"}, {"size": "960"}, {"size": "1"}]}}}}}, {"name": "StatefulPartitionedCall/sequential/MobilenetV3large/expanded_conv_5/project/Conv2D_weights", "op": "Const", "attr": {"value": {"tensor": {"dtype": "DT_FLOAT", "tensorShape": {"dim": [{"size": "1"}, {"size": "1"}, {"size": "120"}, {"size": "40"}]}}}, "dtype": {"type": "DT_FLOAT"}}}, {"name": "StatefulPartitionedCall/sequential/MobilenetV3large/expanded_conv_14/depthwise/depthwise_bn_offset", "op": "Const", "attr": {"value": {"tensor": {"dtype": "DT_FLOAT", "tensorShape": {"dim": [{"size": "960"}]}}}, "dtype": {"type": "DT_FLOAT"}}}, {"name": "StatefulPartitionedCall/sequential/MobilenetV3large/expanded_conv_5/project/Conv2D_bn_offset", "op": "Const", "attr": {"dtype": {"type": "DT_FLOAT"}, "value": {"tensor": {"dtype": "DT_FLOAT", "tensorShape": {"dim": [{"size": "40"}]}}}}}, {"name": "StatefulPartitionedCall/sequential/MobilenetV3large/expanded_conv_6/expand/Conv2D_weights", "op": "Const", "attr": {"dtype": {"type": "DT_FLOAT"}, "value": {"tensor": {"dtype": "DT_FLOAT", "tensorShape": {"dim": [{"size": "1"}, {"size": "1"}, {"size": "40"}, {"size": "240"}]}}}}}, {"name": "StatefulPartitionedCall/sequential/MobilenetV3large/expanded_conv_6/expand/Conv2D_bn_offset", "op": "Const", "attr": {"dtype": {"type": "DT_FLOAT"}, "value": {"tensor": {"dtype": "DT_FLOAT", "tensorShape": {"dim": [{"size": "240"}]}}}}}, {"name": "StatefulPartitionedCall/sequential/MobilenetV3large/expanded_conv_6/depthwise/depthwise_weights", "op": "Const", "attr": {"dtype": {"type": "DT_FLOAT"}, "value": {"tensor": {"dtype": "DT_FLOAT", "tensorShape": {"dim": [{"size": "3"}, {"size": "3"}, {"size": "240"}, {"size": "1"}]}}}}}, {"name": "StatefulPartitionedCall/sequential/MobilenetV3large/expanded_conv_6/depthwise/depthwise_bn_offset", "op": "Const", "attr": {"value": {"tensor": {"dtype": "DT_FLOAT", "tensorShape": {"dim": [{"size": "240"}]}}}, "dtype": {"type": "DT_FLOAT"}}}, {"name": "StatefulPartitionedCall/sequential/MobilenetV3large/expanded_conv_6/project/Conv2D_weights", "op": "Const", "attr": {"dtype": {"type": "DT_FLOAT"}, "value": {"tensor": {"dtype": "DT_FLOAT", "tensorShape": {"dim": [{"size": "1"}, {"size": "1"}, {"size": "240"}, {"size": "80"}]}}}}}, {"name": "StatefulPartitionedCall/sequential/MobilenetV3large/expanded_conv_6/project/Conv2D_bn_offset", "op": "Const", "attr": {"dtype": {"type": "DT_FLOAT"}, "value": {"tensor": {"dtype": "DT_FLOAT", "tensorShape": {"dim": [{"size": "80"}]}}}}}, {"name": "StatefulPartitionedCall/sequential/MobilenetV3large/expanded_conv_7/expand/Conv2D_weights", "op": "Const", "attr": {"value": {"tensor": {"dtype": "DT_FLOAT", "tensorShape": {"dim": [{"size": "1"}, {"size": "1"}, {"size": "80"}, {"size": "200"}]}}}, "dtype": {"type": "DT_FLOAT"}}}, {"name": "StatefulPartitionedCall/sequential/MobilenetV3large/expanded_conv_7/expand/Conv2D_bn_offset", "op": "Const", "attr": {"value": {"tensor": {"dtype": "DT_FLOAT", "tensorShape": {"dim": [{"size": "200"}]}}}, "dtype": {"type": "DT_FLOAT"}}}, {"name": "StatefulPartitionedCall/sequential/MobilenetV3large/expanded_conv_7/depthwise/depthwise_weights", "op": "Const", "attr": {"value": {"tensor": {"dtype": "DT_FLOAT", "tensorShape": {"dim": [{"size": "3"}, {"size": "3"}, {"size": "200"}, {"size": "1"}]}}}, "dtype": {"type": "DT_FLOAT"}}}, {"name": "StatefulPartitionedCall/sequential/MobilenetV3large/expanded_conv_7/depthwise/depthwise_bn_offset", "op": "Const", "attr": {"value": {"tensor": {"dtype": "DT_FLOAT", "tensorShape": {"dim": [{"size": "200"}]}}}, "dtype": {"type": "DT_FLOAT"}}}, {"name": "StatefulPartitionedCall/sequential/MobilenetV3large/expanded_conv_7/project/Conv2D_weights", "op": "Const", "attr": {"value": {"tensor": {"dtype": "DT_FLOAT", "tensorShape": {"dim": [{"size": "1"}, {"size": "1"}, {"size": "200"}, {"size": "80"}]}}}, "dtype": {"type": "DT_FLOAT"}}}, {"name": "StatefulPartitionedCall/sequential/MobilenetV3large/expanded_conv_7/project/Conv2D_bn_offset", "op": "Const", "attr": {"dtype": {"type": "DT_FLOAT"}, "value": {"tensor": {"dtype": "DT_FLOAT", "tensorShape": {"dim": [{"size": "80"}]}}}}}, {"name": "StatefulPartitionedCall/sequential/MobilenetV3large/expanded_conv_8/expand/Conv2D_weights", "op": "Const", "attr": {"value": {"tensor": {"dtype": "DT_FLOAT", "tensorShape": {"dim": [{"size": "1"}, {"size": "1"}, {"size": "80"}, {"size": "184"}]}}}, "dtype": {"type": "DT_FLOAT"}}}, {"name": "StatefulPartitionedCall/sequential/MobilenetV3large/expanded_conv_8/expand/Conv2D_bn_offset", "op": "Const", "attr": {"dtype": {"type": "DT_FLOAT"}, "value": {"tensor": {"dtype": "DT_FLOAT", "tensorShape": {"dim": [{"size": "184"}]}}}}}, {"name": "StatefulPartitionedCall/sequential/MobilenetV3large/expanded_conv_8/depthwise/depthwise_weights", "op": "Const", "attr": {"dtype": {"type": "DT_FLOAT"}, "value": {"tensor": {"dtype": "DT_FLOAT", "tensorShape": {"dim": [{"size": "3"}, {"size": "3"}, {"size": "184"}, {"size": "1"}]}}}}}, {"name": "StatefulPartitionedCall/sequential/MobilenetV3large/expanded_conv_8/depthwise/depthwise_bn_offset", "op": "Const", "attr": {"dtype": {"type": "DT_FLOAT"}, "value": {"tensor": {"dtype": "DT_FLOAT", "tensorShape": {"dim": [{"size": "184"}]}}}}}, {"name": "StatefulPartitionedCall/sequential/MobilenetV3large/expanded_conv_8/project/Conv2D_weights", "op": "Const", "attr": {"dtype": {"type": "DT_FLOAT"}, "value": {"tensor": {"dtype": "DT_FLOAT", "tensorShape": {"dim": [{"size": "1"}, {"size": "1"}, {"size": "184"}, {"size": "80"}]}}}}}, {"name": "StatefulPartitionedCall/sequential/MobilenetV3large/expanded_conv_8/project/Conv2D_bn_offset", "op": "Const", "attr": {"value": {"tensor": {"dtype": "DT_FLOAT", "tensorShape": {"dim": [{"size": "80"}]}}}, "dtype": {"type": "DT_FLOAT"}}}, {"name": "StatefulPartitionedCall/sequential/MobilenetV3large/expanded_conv_9/expand/Conv2D_weights", "op": "Const", "attr": {"dtype": {"type": "DT_FLOAT"}, "value": {"tensor": {"dtype": "DT_FLOAT", "tensorShape": {"dim": [{"size": "1"}, {"size": "1"}, {"size": "80"}, {"size": "184"}]}}}}}, {"name": "StatefulPartitionedCall/sequential/MobilenetV3large/expanded_conv_9/expand/Conv2D_bn_offset", "op": "Const", "attr": {"value": {"tensor": {"dtype": "DT_FLOAT", "tensorShape": {"dim": [{"size": "184"}]}}}, "dtype": {"type": "DT_FLOAT"}}}, {"name": "StatefulPartitionedCall/sequential/MobilenetV3large/expanded_conv_9/depthwise/depthwise_weights", "op": "Const", "attr": {"dtype": {"type": "DT_FLOAT"}, "value": {"tensor": {"dtype": "DT_FLOAT", "tensorShape": {"dim": [{"size": "3"}, {"size": "3"}, {"size": "184"}, {"size": "1"}]}}}}}, {"name": "StatefulPartitionedCall/sequential/MobilenetV3large/expanded_conv_9/depthwise/depthwise_bn_offset", "op": "Const", "attr": {"value": {"tensor": {"dtype": "DT_FLOAT", "tensorShape": {"dim": [{"size": "184"}]}}}, "dtype": {"type": "DT_FLOAT"}}}, {"name": "StatefulPartitionedCall/sequential/MobilenetV3large/expanded_conv_9/project/Conv2D_weights", "op": "Const", "attr": {"value": {"tensor": {"dtype": "DT_FLOAT", "tensorShape": {"dim": [{"size": "1"}, {"size": "1"}, {"size": "184"}, {"size": "80"}]}}}, "dtype": {"type": "DT_FLOAT"}}}, {"name": "StatefulPartitionedCall/sequential/MobilenetV3large/expanded_conv_9/project/Conv2D_bn_offset", "op": "Const", "attr": {"value": {"tensor": {"dtype": "DT_FLOAT", "tensorShape": {"dim": [{"size": "80"}]}}}, "dtype": {"type": "DT_FLOAT"}}}, {"name": "StatefulPartitionedCall/sequential/MobilenetV3large/expanded_conv_10/expand/Conv2D_weights", "op": "Const", "attr": {"value": {"tensor": {"dtype": "DT_FLOAT", "tensorShape": {"dim": [{"size": "1"}, {"size": "1"}, {"size": "80"}, {"size": "480"}]}}}, "dtype": {"type": "DT_FLOAT"}}}, {"name": "StatefulPartitionedCall/sequential/MobilenetV3large/expanded_conv_10/expand/Conv2D_bn_offset", "op": "Const", "attr": {"value": {"tensor": {"dtype": "DT_FLOAT", "tensorShape": {"dim": [{"size": "480"}]}}}, "dtype": {"type": "DT_FLOAT"}}}, {"name": "StatefulPartitionedCall/sequential/MobilenetV3large/expanded_conv_10/depthwise/depthwise_weights", "op": "Const", "attr": {"dtype": {"type": "DT_FLOAT"}, "value": {"tensor": {"dtype": "DT_FLOAT", "tensorShape": {"dim": [{"size": "3"}, {"size": "3"}, {"size": "480"}, {"size": "1"}]}}}}}, {"name": "StatefulPartitionedCall/sequential/MobilenetV3large/expanded_conv_10/depthwise/depthwise_bn_offset", "op": "Const", "attr": {"value": {"tensor": {"dtype": "DT_FLOAT", "tensorShape": {"dim": [{"size": "480"}]}}}, "dtype": {"type": "DT_FLOAT"}}}, {"name": "StatefulPartitionedCall/sequential/MobilenetV3large/expanded_conv_10/project/Conv2D_weights", "op": "Const", "attr": {"dtype": {"type": "DT_FLOAT"}, "value": {"tensor": {"dtype": "DT_FLOAT", "tensorShape": {"dim": [{"size": "1"}, {"size": "1"}, {"size": "480"}, {"size": "112"}]}}}}}, {"name": "StatefulPartitionedCall/sequential/MobilenetV3large/expanded_conv_10/project/Conv2D_bn_offset", "op": "Const", "attr": {"value": {"tensor": {"dtype": "DT_FLOAT", "tensorShape": {"dim": [{"size": "112"}]}}}, "dtype": {"type": "DT_FLOAT"}}}, {"name": "StatefulPartitionedCall/sequential/MobilenetV3large/expanded_conv_11/expand/Conv2D_weights", "op": "Const", "attr": {"dtype": {"type": "DT_FLOAT"}, "value": {"tensor": {"dtype": "DT_FLOAT", "tensorShape": {"dim": [{"size": "1"}, {"size": "1"}, {"size": "112"}, {"size": "672"}]}}}}}, {"name": "StatefulPartitionedCall/sequential/MobilenetV3large/expanded_conv_11/expand/Conv2D_bn_offset", "op": "Const", "attr": {"value": {"tensor": {"dtype": "DT_FLOAT", "tensorShape": {"dim": [{"size": "672"}]}}}, "dtype": {"type": "DT_FLOAT"}}}, {"name": "StatefulPartitionedCall/sequential/MobilenetV3large/expanded_conv_11/depthwise/depthwise_weights", "op": "Const", "attr": {"value": {"tensor": {"dtype": "DT_FLOAT", "tensorShape": {"dim": [{"size": "3"}, {"size": "3"}, {"size": "672"}, {"size": "1"}]}}}, "dtype": {"type": "DT_FLOAT"}}}, {"name": "StatefulPartitionedCall/sequential/MobilenetV3large/expanded_conv_11/depthwise/depthwise_bn_offset", "op": "Const", "attr": {"dtype": {"type": "DT_FLOAT"}, "value": {"tensor": {"dtype": "DT_FLOAT", "tensorShape": {"dim": [{"size": "672"}]}}}}}, {"name": "StatefulPartitionedCall/sequential/MobilenetV3large/expanded_conv_14/project/Conv2D_weights", "op": "Const", "attr": {"value": {"tensor": {"dtype": "DT_FLOAT", "tensorShape": {"dim": [{"size": "1"}, {"size": "1"}, {"size": "960"}, {"size": "160"}]}}}, "dtype": {"type": "DT_FLOAT"}}}, {"name": "StatefulPartitionedCall/sequential/MobilenetV3large/expanded_conv_11/project/Conv2D_weights", "op": "Const", "attr": {"dtype": {"type": "DT_FLOAT"}, "value": {"tensor": {"dtype": "DT_FLOAT", "tensorShape": {"dim": [{"size": "1"}, {"size": "1"}, {"size": "672"}, {"size": "112"}]}}}}}, {"name": "StatefulPartitionedCall/sequential/MobilenetV3large/expanded_conv_14/project/Conv2D_bn_offset", "op": "Const", "attr": {"dtype": {"type": "DT_FLOAT"}, "value": {"tensor": {"dtype": "DT_FLOAT", "tensorShape": {"dim": [{"size": "160"}]}}}}}, {"name": "StatefulPartitionedCall/sequential/MobilenetV3large/expanded_conv_11/project/Conv2D_bn_offset", "op": "Const", "attr": {"value": {"tensor": {"dtype": "DT_FLOAT", "tensorShape": {"dim": [{"size": "112"}]}}}, "dtype": {"type": "DT_FLOAT"}}}, {"name": "StatefulPartitionedCall/sequential/MobilenetV3large/expanded_conv_12/expand/Conv2D_weights", "op": "Const", "attr": {"dtype": {"type": "DT_FLOAT"}, "value": {"tensor": {"dtype": "DT_FLOAT", "tensorShape": {"dim": [{"size": "1"}, {"size": "1"}, {"size": "112"}, {"size": "672"}]}}}}}, {"name": "StatefulPartitionedCall/sequential/MobilenetV3large/expanded_conv_12/expand/Conv2D_bn_offset", "op": "Const", "attr": {"dtype": {"type": "DT_FLOAT"}, "value": {"tensor": {"dtype": "DT_FLOAT", "tensorShape": {"dim": [{"size": "672"}]}}}}}, {"name": "StatefulPartitionedCall/sequential/MobilenetV3large/expanded_conv_12/depthwise/depthwise_weights", "op": "Const", "attr": {"dtype": {"type": "DT_FLOAT"}, "value": {"tensor": {"dtype": "DT_FLOAT", "tensorShape": {"dim": [{"size": "5"}, {"size": "5"}, {"size": "672"}, {"size": "1"}]}}}}}, {"name": "StatefulPartitionedCall/sequential/MobilenetV3large/expanded_conv_12/depthwise/depthwise_bn_offset", "op": "Const", "attr": {"dtype": {"type": "DT_FLOAT"}, "value": {"tensor": {"dtype": "DT_FLOAT", "tensorShape": {"dim": [{"size": "672"}]}}}}}, {"name": "StatefulPartitionedCall/sequential/MobilenetV3large/Conv_1/Conv2D_weights", "op": "Const", "attr": {"dtype": {"type": "DT_FLOAT"}, "value": {"tensor": {"dtype": "DT_FLOAT", "tensorShape": {"dim": [{"size": "1"}, {"size": "1"}, {"size": "160"}, {"size": "960"}]}}}}}, {"name": "StatefulPartitionedCall/sequential/MobilenetV3large/expanded_conv_12/project/Conv2D_weights", "op": "Const", "attr": {"value": {"tensor": {"dtype": "DT_FLOAT", "tensorShape": {"dim": [{"size": "1"}, {"size": "1"}, {"size": "672"}, {"size": "160"}]}}}, "dtype": {"type": "DT_FLOAT"}}}, {"name": "StatefulPartitionedCall/sequential/MobilenetV3large/Conv_1/Conv2D_bn_offset", "op": "Const", "attr": {"dtype": {"type": "DT_FLOAT"}, "value": {"tensor": {"dtype": "DT_FLOAT", "tensorShape": {"dim": [{"size": "960"}]}}}}}, {"name": "StatefulPartitionedCall/sequential/MobilenetV3large/expanded_conv_12/project/Conv2D_bn_offset", "op": "Const", "attr": {"value": {"tensor": {"dtype": "DT_FLOAT", "tensorShape": {"dim": [{"size": "160"}]}}}, "dtype": {"type": "DT_FLOAT"}}}, {"name": "StatefulPartitionedCall/sequential/MobilenetV3large/expanded_conv_13/expand/Conv2D_weights", "op": "Const", "attr": {"value": {"tensor": {"dtype": "DT_FLOAT", "tensorShape": {"dim": [{"size": "1"}, {"size": "1"}, {"size": "160"}, {"size": "960"}]}}}, "dtype": {"type": "DT_FLOAT"}}}, {"name": "StatefulPartitionedCall/sequential/MobilenetV3large/expanded_conv_13/expand/Conv2D_bn_offset", "op": "Const", "attr": {"dtype": {"type": "DT_FLOAT"}, "value": {"tensor": {"dtype": "DT_FLOAT", "tensorShape": {"dim": [{"size": "960"}]}}}}}, {"name": "StatefulPartitionedCall/sequential/MobilenetV3large/expanded_conv_13/depthwise/depthwise_weights", "op": "Const", "attr": {"dtype": {"type": "DT_FLOAT"}, "value": {"tensor": {"dtype": "DT_FLOAT", "tensorShape": {"dim": [{"size": "5"}, {"size": "5"}, {"size": "960"}, {"size": "1"}]}}}}}, {"name": "StatefulPartitionedCall/sequential/MobilenetV3large/expanded_conv_13/depthwise/depthwise_bn_offset", "op": "Const", "attr": {"dtype": {"type": "DT_FLOAT"}, "value": {"tensor": {"dtype": "DT_FLOAT", "tensorShape": {"dim": [{"size": "960"}]}}}}}, {"name": "StatefulPartitionedCall/sequential/MobilenetV3large/rescaling/mul", "op": "Mul", "input": ["mobilenetv3large_input", "StatefulPartitionedCall/sequential/MobilenetV3large/rescaling/Cast/x"], "attr": {"T": {"type": "DT_FLOAT"}}}, {"name": "StatefulPartitionedCall/sequential/MobilenetV3large/rescaling/add", "op": "AddV2", "input": ["StatefulPartitionedCall/sequential/MobilenetV3large/rescaling/mul", "StatefulPartitionedCall/sequential/MobilenetV3large/rescaling/Cast_1/x"], "attr": {"T": {"type": "DT_FLOAT"}}}, {"name": "StatefulPartitionedCall/sequential/MobilenetV3large/Conv/BatchNorm/FusedBatchNormV3", "op": "_FusedConv2D", "input": ["StatefulPartitionedCall/sequential/MobilenetV3large/rescaling/add", "StatefulPartitionedCall/sequential/MobilenetV3large/Conv/Conv2D_weights", "StatefulPartitionedCall/sequential/MobilenetV3large/Conv/Conv2D_bn_offset"], "device": "/device:CPU:0", "attr": {"epsilon": {"f": 0.0}, "strides": {"list": {"i": ["1", "2", "2", "1"]}}, "TArgs": {"list": {"type": ["DT_FLOAT"]}}, "padding": {"s": "U0FNRQ=="}, "num_args": {"i": "1"}, "explicit_paddings": {"list": {}}, "data_format": {"s": "TkhXQw=="}, "num_host_args": {"i": "0"}, "use_cudnn_on_gpu": {"b": true}, "dilations": {"list": {"i": ["1", "1", "1", "1"]}}, "T": {"type": "DT_FLOAT"}, "leakyrelu_alpha": {"f": 0.2}, "fused_ops": {"list": {"s": ["Qmlhc0FkZA=="]}}, "filter_format": {"s": "SFdJTw=="}}}, {"name": "StatefulPartitionedCall/sequential/MobilenetV3large/tf.math.multiply/Mul", "op": "Mul", "input": ["StatefulPartitionedCall/sequential/MobilenetV3large/tf.math.multiply/Mul/y", "StatefulPartitionedCall/sequential/MobilenetV3large/Conv/BatchNorm/FusedBatchNormV3"], "attr": {"T": {"type": "DT_FLOAT"}, "_grappler_ArithmeticOptimizer_MinimizeBroadcasts": {"b": true}}}, {"name": "StatefulPartitionedCall/sequential/MobilenetV3large/tf.math.add/Add", "op": "AddV2", "input": ["StatefulPartitionedCall/sequential/MobilenetV3large/Conv/BatchNorm/FusedBatchNormV3", "unknown_4"], "attr": {"T": {"type": "DT_FLOAT"}}}, {"name": "StatefulPartitionedCall/sequential/MobilenetV3large/re_lu/Relu6", "op": "Relu6", "input": ["StatefulPartitionedCall/sequential/MobilenetV3large/tf.math.add/Add"], "attr": {"T": {"type": "DT_FLOAT"}}}, {"name": "StatefulPartitionedCall/sequential/MobilenetV3large/multiply/mul", "op": "Mul", "input": ["StatefulPartitionedCall/sequential/MobilenetV3large/tf.math.multiply/Mul", "StatefulPartitionedCall/sequential/MobilenetV3large/re_lu/Relu6"], "attr": {"_grappler_ArithmeticOptimizer_MinimizeBroadcasts": {"b": true}, "T": {"type": "DT_FLOAT"}}}, {"name": "StatefulPartitionedCall/sequential/MobilenetV3large/expanded_conv/depthwise/depthwise", "op": "FusedDepthwiseConv2dNative", "input": ["StatefulPartitionedCall/sequential/MobilenetV3large/multiply/mul", "StatefulPartitionedCall/sequential/MobilenetV3large/expanded_conv/depthwise/depthwise_weights", "StatefulPartitionedCall/sequential/MobilenetV3large/expanded_conv/depthwise/depthwise_bn_offset"], "attr": {"fused_ops": {"list": {"s": ["Qmlhc0FkZA==", "UmVsdQ=="]}}, "explicit_paddings": {"list": {}}, "T": {"type": "DT_FLOAT"}, "strides": {"list": {"i": ["1", "1", "1", "1"]}}, "num_args": {"i": "1"}, "padding": {"s": "U0FNRQ=="}, "dilations": {"list": {"i": ["1", "1", "1", "1"]}}, "data_format": {"s": "TkhXQw=="}}}, {"name": "StatefulPartitionedCall/sequential/MobilenetV3large/expanded_conv/project/BatchNorm/FusedBatchNormV3", "op": "_FusedConv2D", "input": ["StatefulPartitionedCall/sequential/MobilenetV3large/expanded_conv/depthwise/depthwise", "StatefulPartitionedCall/sequential/MobilenetV3large/expanded_conv/project/Conv2D_weights", "StatefulPartitionedCall/sequential/MobilenetV3large/expanded_conv/project/Conv2D_bn_offset"], "device": "/device:CPU:0", "attr": {"padding": {"s": "U0FNRQ=="}, "filter_format": {"s": "SFdJTw=="}, "epsilon": {"f": 0.0}, "T": {"type": "DT_FLOAT"}, "use_cudnn_on_gpu": {"b": true}, "leakyrelu_alpha": {"f": 0.2}, "dilations": {"list": {"i": ["1", "1", "1", "1"]}}, "num_args": {"i": "1"}, "explicit_paddings": {"list": {}}, "data_format": {"s": "TkhXQw=="}, "num_host_args": {"i": "0"}, "strides": {"list": {"i": ["1", "1", "1", "1"]}}, "TArgs": {"list": {"type": ["DT_FLOAT"]}}, "fused_ops": {"list": {"s": ["Qmlhc0FkZA=="]}}}}, {"name": "StatefulPartitionedCall/sequential/MobilenetV3large/expanded_conv/Add/add", "op": "AddV2", "input": ["StatefulPartitionedCall/sequential/MobilenetV3large/multiply/mul", "StatefulPartitionedCall/sequential/MobilenetV3large/expanded_conv/project/BatchNorm/FusedBatchNormV3"], "attr": {"T": {"type": "DT_FLOAT"}}}, {"name": "StatefulPartitionedCall/sequential/MobilenetV3large/re_lu_2/Relu", "op": "_FusedConv2D", "input": ["StatefulPartitionedCall/sequential/MobilenetV3large/expanded_conv/Add/add", "StatefulPartitionedCall/sequential/MobilenetV3large/expanded_conv_1/expand/Conv2D_weights", "StatefulPartitionedCall/sequential/MobilenetV3large/expanded_conv_1/expand/Conv2D_bn_offset"], "device": "/device:CPU:0", "attr": {"TArgs": {"list": {"type": ["DT_FLOAT"]}}, "dilations": {"list": {"i": ["1", "1", "1", "1"]}}, "num_args": {"i": "1"}, "padding": {"s": "U0FNRQ=="}, "epsilon": {"f": 0.0}, "filter_format": {"s": "SFdJTw=="}, "data_format": {"s": "TkhXQw=="}, "num_host_args": {"i": "0"}, "strides": {"list": {"i": ["1", "1", "1", "1"]}}, "explicit_paddings": {"list": {}}, "leakyrelu_alpha": {"f": 0.2}, "use_cudnn_on_gpu": {"b": true}, "T": {"type": "DT_FLOAT"}, "fused_ops": {"list": {"s": ["Qmlhc0FkZA==", "UmVsdQ=="]}}}}, {"name": "StatefulPartitionedCall/sequential/MobilenetV3large/expanded_conv_1/depthwise/pad/Pad", "op": "Pad", "input": ["StatefulPartitionedCall/sequential/MobilenetV3large/re_lu_2/Relu", "StatefulPartitionedCall/sequential/MobilenetV3large/expanded_conv_1/depthwise/pad/Pad/paddings"], "attr": {"T": {"type": "DT_FLOAT"}, "Tpaddings": {"type": "DT_INT32"}}}, {"name": "StatefulPartitionedCall/sequential/MobilenetV3large/expanded_conv_1/depthwise/depthwise", "op": "FusedDepthwiseConv2dNative", "input": ["StatefulPartitionedCall/sequential/MobilenetV3large/expanded_conv_1/depthwise/pad/Pad", "StatefulPartitionedCall/sequential/MobilenetV3large/expanded_conv_1/depthwise/depthwise_weights", "StatefulPartitionedCall/sequential/MobilenetV3large/expanded_conv_1/depthwise/depthwise_bn_offset"], "attr": {"padding": {"s": "VkFMSUQ="}, "explicit_paddings": {"list": {}}, "dilations": {"list": {"i": ["1", "1", "1", "1"]}}, "strides": {"list": {"i": ["1", "2", "2", "1"]}}, "data_format": {"s": "TkhXQw=="}, "num_args": {"i": "1"}, "fused_ops": {"list": {"s": ["Qmlhc0FkZA==", "UmVsdQ=="]}}, "T": {"type": "DT_FLOAT"}}}, {"name": "StatefulPartitionedCall/sequential/MobilenetV3large/expanded_conv_1/project/BatchNorm/FusedBatchNormV3", "op": "_FusedConv2D", "input": ["StatefulPartitionedCall/sequential/MobilenetV3large/expanded_conv_1/depthwise/depthwise", "StatefulPartitionedCall/sequential/MobilenetV3large/expanded_conv_1/project/Conv2D_weights", "StatefulPartitionedCall/sequential/MobilenetV3large/expanded_conv_1/project/Conv2D_bn_offset"], "device": "/device:CPU:0", "attr": {"use_cudnn_on_gpu": {"b": true}, "num_args": {"i": "1"}, "T": {"type": "DT_FLOAT"}, "epsilon": {"f": 0.0}, "filter_format": {"s": "SFdJTw=="}, "data_format": {"s": "TkhXQw=="}, "fused_ops": {"list": {"s": ["Qmlhc0FkZA=="]}}, "explicit_paddings": {"list": {}}, "dilations": {"list": {"i": ["1", "1", "1", "1"]}}, "TArgs": {"list": {"type": ["DT_FLOAT"]}}, "num_host_args": {"i": "0"}, "strides": {"list": {"i": ["1", "1", "1", "1"]}}, "padding": {"s": "U0FNRQ=="}, "leakyrelu_alpha": {"f": 0.2}}}, {"name": "StatefulPartitionedCall/sequential/MobilenetV3large/re_lu_4/Relu", "op": "_FusedConv2D", "input": ["StatefulPartitionedCall/sequential/MobilenetV3large/expanded_conv_1/project/BatchNorm/FusedBatchNormV3", "StatefulPartitionedCall/sequential/MobilenetV3large/expanded_conv_2/expand/Conv2D_weights", "StatefulPartitionedCall/sequential/MobilenetV3large/expanded_conv_2/expand/Conv2D_bn_offset"], "device": "/device:CPU:0", "attr": {"num_host_args": {"i": "0"}, "num_args": {"i": "1"}, "use_cudnn_on_gpu": {"b": true}, "filter_format": {"s": "SFdJTw=="}, "TArgs": {"list": {"type": ["DT_FLOAT"]}}, "epsilon": {"f": 0.0}, "leakyrelu_alpha": {"f": 0.2}, "dilations": {"list": {"i": ["1", "1", "1", "1"]}}, "T": {"type": "DT_FLOAT"}, "padding": {"s": "U0FNRQ=="}, "explicit_paddings": {"list": {}}, "strides": {"list": {"i": ["1", "1", "1", "1"]}}, "data_format": {"s": "TkhXQw=="}, "fused_ops": {"list": {"s": ["Qmlhc0FkZA==", "UmVsdQ=="]}}}}, {"name": "StatefulPartitionedCall/sequential/MobilenetV3large/expanded_conv_2/depthwise/depthwise", "op": "FusedDepthwiseConv2dNative", "input": ["StatefulPartitionedCall/sequential/MobilenetV3large/re_lu_4/Relu", "StatefulPartitionedCall/sequential/MobilenetV3large/expanded_conv_2/depthwise/depthwise_weights", "StatefulPartitionedCall/sequential/MobilenetV3large/expanded_conv_2/depthwise/depthwise_bn_offset"], "attr": {"dilations": {"list": {"i": ["1", "1", "1", "1"]}}, "num_args": {"i": "1"}, "data_format": {"s": "TkhXQw=="}, "T": {"type": "DT_FLOAT"}, "padding": {"s": "U0FNRQ=="}, "explicit_paddings": {"list": {}}, "fused_ops": {"list": {"s": ["Qmlhc0FkZA==", "UmVsdQ=="]}}, "strides": {"list": {"i": ["1", "1", "1", "1"]}}}}, {"name": "StatefulPartitionedCall/sequential/MobilenetV3large/expanded_conv_2/project/BatchNorm/FusedBatchNormV3", "op": "_FusedConv2D", "input": ["StatefulPartitionedCall/sequential/MobilenetV3large/expanded_conv_2/depthwise/depthwise", "StatefulPartitionedCall/sequential/MobilenetV3large/expanded_conv_2/project/Conv2D_weights", "StatefulPartitionedCall/sequential/MobilenetV3large/expanded_conv_2/project/Conv2D_bn_offset"], "device": "/device:CPU:0", "attr": {"padding": {"s": "U0FNRQ=="}, "epsilon": {"f": 0.0}, "dilations": {"list": {"i": ["1", "1", "1", "1"]}}, "TArgs": {"list": {"type": ["DT_FLOAT"]}}, "strides": {"list": {"i": ["1", "1", "1", "1"]}}, "num_host_args": {"i": "0"}, "num_args": {"i": "1"}, "T": {"type": "DT_FLOAT"}, "filter_format": {"s": "SFdJTw=="}, "explicit_paddings": {"list": {}}, "leakyrelu_alpha": {"f": 0.2}, "data_format": {"s": "TkhXQw=="}, "use_cudnn_on_gpu": {"b": true}, "fused_ops": {"list": {"s": ["Qmlhc0FkZA=="]}}}}, {"name": "StatefulPartitionedCall/sequential/MobilenetV3large/expanded_conv_2/Add/add", "op": "AddV2", "input": ["StatefulPartitionedCall/sequential/MobilenetV3large/expanded_conv_1/project/BatchNorm/FusedBatchNormV3", "StatefulPartitionedCall/sequential/MobilenetV3large/expanded_conv_2/project/BatchNorm/FusedBatchNormV3"], "attr": {"T": {"type": "DT_FLOAT"}}}, {"name": "StatefulPartitionedCall/sequential/MobilenetV3large/re_lu_6/Relu", "op": "_FusedConv2D", "input": ["StatefulPartitionedCall/sequential/MobilenetV3large/expanded_conv_2/Add/add", "StatefulPartitionedCall/sequential/MobilenetV3large/expanded_conv_3/expand/Conv2D_weights", "StatefulPartitionedCall/sequential/MobilenetV3large/expanded_conv_3/expand/Conv2D_bn_offset"], "device": "/device:CPU:0", "attr": {"num_host_args": {"i": "0"}, "data_format": {"s": "TkhXQw=="}, "epsilon": {"f": 0.0}, "explicit_paddings": {"list": {}}, "filter_format": {"s": "SFdJTw=="}, "strides": {"list": {"i": ["1", "1", "1", "1"]}}, "leakyrelu_alpha": {"f": 0.2}, "dilations": {"list": {"i": ["1", "1", "1", "1"]}}, "TArgs": {"list": {"type": ["DT_FLOAT"]}}, "T": {"type": "DT_FLOAT"}, "use_cudnn_on_gpu": {"b": true}, "num_args": {"i": "1"}, "fused_ops": {"list": {"s": ["Qmlhc0FkZA==", "UmVsdQ=="]}}, "padding": {"s": "U0FNRQ=="}}}, {"name": "StatefulPartitionedCall/sequential/MobilenetV3large/expanded_conv_3/depthwise/pad/Pad", "op": "Pad", "input": ["StatefulPartitionedCall/sequential/MobilenetV3large/re_lu_6/Relu", "StatefulPartitionedCall/sequential/MobilenetV3large/expanded_conv_3/depthwise/pad/Pad/paddings"], "attr": {"T": {"type": "DT_FLOAT"}, "Tpaddings": {"type": "DT_INT32"}}}, {"name": "StatefulPartitionedCall/sequential/MobilenetV3large/expanded_conv_3/depthwise/depthwise", "op": "FusedDepthwiseConv2dNative", "input": ["StatefulPartitionedCall/sequential/MobilenetV3large/expanded_conv_3/depthwise/pad/Pad", "StatefulPartitionedCall/sequential/MobilenetV3large/expanded_conv_3/depthwise/depthwise_weights", "StatefulPartitionedCall/sequential/MobilenetV3large/expanded_conv_3/depthwise/depthwise_bn_offset"], "attr": {"dilations": {"list": {"i": ["1", "1", "1", "1"]}}, "fused_ops": {"list": {"s": ["Qmlhc0FkZA==", "UmVsdQ=="]}}, "data_format": {"s": "TkhXQw=="}, "padding": {"s": "VkFMSUQ="}, "explicit_paddings": {"list": {}}, "strides": {"list": {"i": ["1", "2", "2", "1"]}}, "num_args": {"i": "1"}, "T": {"type": "DT_FLOAT"}}}, {"name": "StatefulPartitionedCall/sequential/MobilenetV3large/expanded_conv_3/squeeze_excite/AvgPool/Mean", "op": "Mean", "input": ["StatefulPartitionedCall/sequential/MobilenetV3large/expanded_conv_3/depthwise/depthwise", "StatefulPartitionedCall/sequential/MobilenetV3large/expanded_conv_3/squeeze_excite/AvgPool/Mean/reduction_indices"], "attr": {"keep_dims": {"b": true}, "T": {"type": "DT_FLOAT"}, "Tidx": {"type": "DT_INT32"}}}, {"name": "StatefulPartitionedCall/sequential/MobilenetV3large/expanded_conv_3/squeeze_excite/Relu/Relu", "op": "_FusedConv2D", "input": ["StatefulPartitionedCall/sequential/MobilenetV3large/expanded_conv_3/squeeze_excite/AvgPool/Mean", "StatefulPartitionedCall/sequential/MobilenetV3large/expanded_conv_3/squeeze_excite/Conv/Conv2D/ReadVariableOp", "StatefulPartitionedCall/sequential/MobilenetV3large/expanded_conv_3/squeeze_excite/Conv/BiasAdd/ReadVariableOp"], "device": "/device:CPU:0", "attr": {"use_cudnn_on_gpu": {"b": true}, "filter_format": {"s": "SFdJTw=="}, "explicit_paddings": {"list": {}}, "data_format": {"s": "TkhXQw=="}, "num_args": {"i": "1"}, "padding": {"s": "U0FNRQ=="}, "dilations": {"list": {"i": ["1", "1", "1", "1"]}}, "num_host_args": {"i": "0"}, "epsilon": {"f": 0.0}, "TArgs": {"list": {"type": ["DT_FLOAT"]}}, "strides": {"list": {"i": ["1", "1", "1", "1"]}}, "T": {"type": "DT_FLOAT"}, "leakyrelu_alpha": {"f": 0.2}, "fused_ops": {"list": {"s": ["Qmlhc0FkZA==", "UmVsdQ=="]}}}}, {"name": "StatefulPartitionedCall/sequential/MobilenetV3large/expanded_conv_3/squeeze_excite/Conv_1/BiasAdd", "op": "_FusedConv2D", "input": ["StatefulPartitionedCall/sequential/MobilenetV3large/expanded_conv_3/squeeze_excite/Relu/Relu", "StatefulPartitionedCall/sequential/MobilenetV3large/expanded_conv_3/squeeze_excite/Conv_1/Conv2D/ReadVariableOp", "StatefulPartitionedCall/sequential/MobilenetV3large/expanded_conv_3/squeeze_excite/Conv_1/BiasAdd/ReadVariableOp"], "device": "/device:CPU:0", "attr": {"padding": {"s": "U0FNRQ=="}, "leakyrelu_alpha": {"f": 0.2}, "filter_format": {"s": "SFdJTw=="}, "num_args": {"i": "1"}, "dilations": {"list": {"i": ["1", "1", "1", "1"]}}, "epsilon": {"f": 0.0}, "strides": {"list": {"i": ["1", "1", "1", "1"]}}, "fused_ops": {"list": {"s": ["Qmlhc0FkZA=="]}}, "T": {"type": "DT_FLOAT"}, "data_format": {"s": "TkhXQw=="}, "TArgs": {"list": {"type": ["DT_FLOAT"]}}, "use_cudnn_on_gpu": {"b": true}, "explicit_paddings": {"list": {}}, "num_host_args": {"i": "0"}}}, {"name": "StatefulPartitionedCall/sequential/MobilenetV3large/tf.math.add_1/Add", "op": "AddV2", "input": ["StatefulPartitionedCall/sequential/MobilenetV3large/expanded_conv_3/squeeze_excite/Conv_1/BiasAdd", "unknown_59"], "attr": {"T": {"type": "DT_FLOAT"}}}, {"name": "StatefulPartitionedCall/sequential/MobilenetV3large/re_lu_8/Relu6", "op": "Relu6", "input": ["StatefulPartitionedCall/sequential/MobilenetV3large/tf.math.add_1/Add"], "attr": {"T": {"type": "DT_FLOAT"}}}, {"name": "StatefulPartitionedCall/sequential/MobilenetV3large/tf.math.multiply_1/Mul", "op": "Mul", "input": ["StatefulPartitionedCall/sequential/MobilenetV3large/tf.math.multiply_1/Mul/y", "StatefulPartitionedCall/sequential/MobilenetV3large/re_lu_8/Relu6"], "attr": {"T": {"type": "DT_FLOAT"}, "_grappler_ArithmeticOptimizer_MinimizeBroadcasts": {"b": true}}}, {"name": "StatefulPartitionedCall/sequential/MobilenetV3large/expanded_conv_3/squeeze_excite/Mul/mul", "op": "Mul", "input": ["StatefulPartitionedCall/sequential/MobilenetV3large/tf.math.multiply_1/Mul", "StatefulPartitionedCall/sequential/MobilenetV3large/expanded_conv_3/depthwise/depthwise"], "attr": {"T": {"type": "DT_FLOAT"}, "_grappler_ArithmeticOptimizer_MinimizeBroadcasts": {"b": true}}}, {"name": "StatefulPartitionedCall/sequential/MobilenetV3large/expanded_conv_3/project/BatchNorm/FusedBatchNormV3", "op": "_FusedConv2D", "input": ["StatefulPartitionedCall/sequential/MobilenetV3large/expanded_conv_3/squeeze_excite/Mul/mul", "StatefulPartitionedCall/sequential/MobilenetV3large/expanded_conv_3/project/Conv2D_weights", "StatefulPartitionedCall/sequential/MobilenetV3large/expanded_conv_3/project/Conv2D_bn_offset"], "device": "/device:CPU:0", "attr": {"padding": {"s": "U0FNRQ=="}, "TArgs": {"list": {"type": ["DT_FLOAT"]}}, "explicit_paddings": {"list": {}}, "use_cudnn_on_gpu": {"b": true}, "data_format": {"s": "TkhXQw=="}, "dilations": {"list": {"i": ["1", "1", "1", "1"]}}, "leakyrelu_alpha": {"f": 0.2}, "epsilon": {"f": 0.0}, "fused_ops": {"list": {"s": ["Qmlhc0FkZA=="]}}, "num_host_args": {"i": "0"}, "num_args": {"i": "1"}, "strides": {"list": {"i": ["1", "1", "1", "1"]}}, "T": {"type": "DT_FLOAT"}, "filter_format": {"s": "SFdJTw=="}}}, {"name": "StatefulPartitionedCall/sequential/MobilenetV3large/re_lu_9/Relu", "op": "_FusedConv2D", "input": ["StatefulPartitionedCall/sequential/MobilenetV3large/expanded_conv_3/project/BatchNorm/FusedBatchNormV3", "StatefulPartitionedCall/sequential/MobilenetV3large/expanded_conv_4/expand/Conv2D_weights", "StatefulPartitionedCall/sequential/MobilenetV3large/expanded_conv_4/expand/Conv2D_bn_offset"], "device": "/device:CPU:0", "attr": {"data_format": {"s": "TkhXQw=="}, "num_args": {"i": "1"}, "T": {"type": "DT_FLOAT"}, "strides": {"list": {"i": ["1", "1", "1", "1"]}}, "epsilon": {"f": 0.0}, "use_cudnn_on_gpu": {"b": true}, "leakyrelu_alpha": {"f": 0.2}, "TArgs": {"list": {"type": ["DT_FLOAT"]}}, "fused_ops": {"list": {"s": ["Qmlhc0FkZA==", "UmVsdQ=="]}}, "padding": {"s": "U0FNRQ=="}, "dilations": {"list": {"i": ["1", "1", "1", "1"]}}, "filter_format": {"s": "SFdJTw=="}, "explicit_paddings": {"list": {}}, "num_host_args": {"i": "0"}}}, {"name": "StatefulPartitionedCall/sequential/MobilenetV3large/expanded_conv_4/depthwise/depthwise", "op": "FusedDepthwiseConv2dNative", "input": ["StatefulPartitionedCall/sequential/MobilenetV3large/re_lu_9/Relu", "StatefulPartitionedCall/sequential/MobilenetV3large/expanded_conv_4/depthwise/depthwise_weights", "StatefulPartitionedCall/sequential/MobilenetV3large/expanded_conv_4/depthwise/depthwise_bn_offset"], "attr": {"T": {"type": "DT_FLOAT"}, "dilations": {"list": {"i": ["1", "1", "1", "1"]}}, "data_format": {"s": "TkhXQw=="}, "fused_ops": {"list": {"s": ["Qmlhc0FkZA==", "UmVsdQ=="]}}, "explicit_paddings": {"list": {}}, "num_args": {"i": "1"}, "strides": {"list": {"i": ["1", "1", "1", "1"]}}, "padding": {"s": "U0FNRQ=="}}}, {"name": "StatefulPartitionedCall/sequential/MobilenetV3large/expanded_conv_4/squeeze_excite/AvgPool/Mean", "op": "Mean", "input": ["StatefulPartitionedCall/sequential/MobilenetV3large/expanded_conv_4/depthwise/depthwise", "StatefulPartitionedCall/sequential/MobilenetV3large/expanded_conv_4/squeeze_excite/AvgPool/Mean/reduction_indices"], "attr": {"T": {"type": "DT_FLOAT"}, "Tidx": {"type": "DT_INT32"}, "keep_dims": {"b": true}}}, {"name": "StatefulPartitionedCall/sequential/MobilenetV3large/expanded_conv_4/squeeze_excite/Relu/Relu", "op": "_FusedConv2D", "input": ["StatefulPartitionedCall/sequential/MobilenetV3large/expanded_conv_4/squeeze_excite/AvgPool/Mean", "StatefulPartitionedCall/sequential/MobilenetV3large/expanded_conv_4/squeeze_excite/Conv/Conv2D/ReadVariableOp", "StatefulPartitionedCall/sequential/MobilenetV3large/expanded_conv_4/squeeze_excite/Conv/BiasAdd/ReadVariableOp"], "device": "/device:CPU:0", "attr": {"data_format": {"s": "TkhXQw=="}, "padding": {"s": "U0FNRQ=="}, "explicit_paddings": {"list": {}}, "dilations": {"list": {"i": ["1", "1", "1", "1"]}}, "use_cudnn_on_gpu": {"b": true}, "T": {"type": "DT_FLOAT"}, "num_host_args": {"i": "0"}, "fused_ops": {"list": {"s": ["Qmlhc0FkZA==", "UmVsdQ=="]}}, "epsilon": {"f": 0.0}, "leakyrelu_alpha": {"f": 0.2}, "TArgs": {"list": {"type": ["DT_FLOAT"]}}, "num_args": {"i": "1"}, "filter_format": {"s": "SFdJTw=="}, "strides": {"list": {"i": ["1", "1", "1", "1"]}}}}, {"name": "StatefulPartitionedCall/sequential/MobilenetV3large/expanded_conv_4/squeeze_excite/Conv_1/BiasAdd", "op": "_FusedConv2D", "input": ["StatefulPartitionedCall/sequential/MobilenetV3large/expanded_conv_4/squeeze_excite/Relu/Relu", "StatefulPartitionedCall/sequential/MobilenetV3large/expanded_conv_4/squeeze_excite/Conv_1/Conv2D/ReadVariableOp", "StatefulPartitionedCall/sequential/MobilenetV3large/expanded_conv_4/squeeze_excite/Conv_1/BiasAdd/ReadVariableOp"], "device": "/device:CPU:0", "attr": {"num_host_args": {"i": "0"}, "fused_ops": {"list": {"s": ["Qmlhc0FkZA=="]}}, "strides": {"list": {"i": ["1", "1", "1", "1"]}}, "use_cudnn_on_gpu": {"b": true}, "filter_format": {"s": "SFdJTw=="}, "TArgs": {"list": {"type": ["DT_FLOAT"]}}, "T": {"type": "DT_FLOAT"}, "dilations": {"list": {"i": ["1", "1", "1", "1"]}}, "data_format": {"s": "TkhXQw=="}, "epsilon": {"f": 0.0}, "num_args": {"i": "1"}, "padding": {"s": "U0FNRQ=="}, "explicit_paddings": {"list": {}}, "leakyrelu_alpha": {"f": 0.2}}}, {"name": "StatefulPartitionedCall/sequential/MobilenetV3large/tf.math.add_2/Add", "op": "AddV2", "input": ["StatefulPartitionedCall/sequential/MobilenetV3large/expanded_conv_4/squeeze_excite/Conv_1/BiasAdd", "unknown_79"], "attr": {"T": {"type": "DT_FLOAT"}}}, {"name": "StatefulPartitionedCall/sequential/MobilenetV3large/re_lu_11/Relu6", "op": "Relu6", "input": ["StatefulPartitionedCall/sequential/MobilenetV3large/tf.math.add_2/Add"], "attr": {"T": {"type": "DT_FLOAT"}}}, {"name": "StatefulPartitionedCall/sequential/MobilenetV3large/tf.math.multiply_2/Mul", "op": "Mul", "input": ["StatefulPartitionedCall/sequential/MobilenetV3large/tf.math.multiply_2/Mul/y", "StatefulPartitionedCall/sequential/MobilenetV3large/re_lu_11/Relu6"], "attr": {"T": {"type": "DT_FLOAT"}, "_grappler_ArithmeticOptimizer_MinimizeBroadcasts": {"b": true}}}, {"name": "StatefulPartitionedCall/sequential/MobilenetV3large/expanded_conv_4/squeeze_excite/Mul/mul", "op": "Mul", "input": ["StatefulPartitionedCall/sequential/MobilenetV3large/tf.math.multiply_2/Mul", "StatefulPartitionedCall/sequential/MobilenetV3large/expanded_conv_4/depthwise/depthwise"], "attr": {"_grappler_ArithmeticOptimizer_MinimizeBroadcasts": {"b": true}, "T": {"type": "DT_FLOAT"}}}, {"name": "StatefulPartitionedCall/sequential/MobilenetV3large/expanded_conv_4/project/BatchNorm/FusedBatchNormV3", "op": "_FusedConv2D", "input": ["StatefulPartitionedCall/sequential/MobilenetV3large/expanded_conv_4/squeeze_excite/Mul/mul", "StatefulPartitionedCall/sequential/MobilenetV3large/expanded_conv_4/project/Conv2D_weights", "StatefulPartitionedCall/sequential/MobilenetV3large/expanded_conv_4/project/Conv2D_bn_offset"], "device": "/device:CPU:0", "attr": {"fused_ops": {"list": {"s": ["Qmlhc0FkZA=="]}}, "num_host_args": {"i": "0"}, "T": {"type": "DT_FLOAT"}, "TArgs": {"list": {"type": ["DT_FLOAT"]}}, "filter_format": {"s": "SFdJTw=="}, "data_format": {"s": "TkhXQw=="}, "dilations": {"list": {"i": ["1", "1", "1", "1"]}}, "padding": {"s": "U0FNRQ=="}, "leakyrelu_alpha": {"f": 0.2}, "explicit_paddings": {"list": {}}, "strides": {"list": {"i": ["1", "1", "1", "1"]}}, "use_cudnn_on_gpu": {"b": true}, "epsilon": {"f": 0.0}, "num_args": {"i": "1"}}}, {"name": "StatefulPartitionedCall/sequential/MobilenetV3large/expanded_conv_4/Add/add", "op": "AddV2", "input": ["StatefulPartitionedCall/sequential/MobilenetV3large/expanded_conv_3/project/BatchNorm/FusedBatchNormV3", "StatefulPartitionedCall/sequential/MobilenetV3large/expanded_conv_4/project/BatchNorm/FusedBatchNormV3"], "attr": {"T": {"type": "DT_FLOAT"}}}, {"name": "StatefulPartitionedCall/sequential/MobilenetV3large/re_lu_12/Relu", "op": "_FusedConv2D", "input": ["StatefulPartitionedCall/sequential/MobilenetV3large/expanded_conv_4/Add/add", "StatefulPartitionedCall/sequential/MobilenetV3large/expanded_conv_5/expand/Conv2D_weights", "StatefulPartitionedCall/sequential/MobilenetV3large/expanded_conv_5/expand/Conv2D_bn_offset"], "device": "/device:CPU:0", "attr": {"strides": {"list": {"i": ["1", "1", "1", "1"]}}, "padding": {"s": "U0FNRQ=="}, "explicit_paddings": {"list": {}}, "data_format": {"s": "TkhXQw=="}, "num_host_args": {"i": "0"}, "fused_ops": {"list": {"s": ["Qmlhc0FkZA==", "UmVsdQ=="]}}, "epsilon": {"f": 0.0}, "dilations": {"list": {"i": ["1", "1", "1", "1"]}}, "T": {"type": "DT_FLOAT"}, "filter_format": {"s": "SFdJTw=="}, "use_cudnn_on_gpu": {"b": true}, "leakyrelu_alpha": {"f": 0.2}, "TArgs": {"list": {"type": ["DT_FLOAT"]}}, "num_args": {"i": "1"}}}, {"name": "StatefulPartitionedCall/sequential/MobilenetV3large/expanded_conv_5/depthwise/depthwise", "op": "FusedDepthwiseConv2dNative", "input": ["StatefulPartitionedCall/sequential/MobilenetV3large/re_lu_12/Relu", "StatefulPartitionedCall/sequential/MobilenetV3large/expanded_conv_5/depthwise/depthwise_weights", "StatefulPartitionedCall/sequential/MobilenetV3large/expanded_conv_5/depthwise/depthwise_bn_offset"], "attr": {"explicit_paddings": {"list": {}}, "num_args": {"i": "1"}, "T": {"type": "DT_FLOAT"}, "fused_ops": {"list": {"s": ["Qmlhc0FkZA==", "UmVsdQ=="]}}, "strides": {"list": {"i": ["1", "1", "1", "1"]}}, "data_format": {"s": "TkhXQw=="}, "dilations": {"list": {"i": ["1", "1", "1", "1"]}}, "padding": {"s": "U0FNRQ=="}}}, {"name": "StatefulPartitionedCall/sequential/MobilenetV3large/expanded_conv_5/squeeze_excite/AvgPool/Mean", "op": "Mean", "input": ["StatefulPartitionedCall/sequential/MobilenetV3large/expanded_conv_5/depthwise/depthwise", "StatefulPartitionedCall/sequential/MobilenetV3large/expanded_conv_5/squeeze_excite/AvgPool/Mean/reduction_indices"], "attr": {"T": {"type": "DT_FLOAT"}, "keep_dims": {"b": true}, "Tidx": {"type": "DT_INT32"}}}, {"name": "StatefulPartitionedCall/sequential/MobilenetV3large/expanded_conv_5/squeeze_excite/Relu/Relu", "op": "_FusedConv2D", "input": ["StatefulPartitionedCall/sequential/MobilenetV3large/expanded_conv_5/squeeze_excite/AvgPool/Mean", "StatefulPartitionedCall/sequential/MobilenetV3large/expanded_conv_5/squeeze_excite/Conv/Conv2D/ReadVariableOp", "StatefulPartitionedCall/sequential/MobilenetV3large/expanded_conv_5/squeeze_excite/Conv/BiasAdd/ReadVariableOp"], "device": "/device:CPU:0", "attr": {"strides": {"list": {"i": ["1", "1", "1", "1"]}}, "leakyrelu_alpha": {"f": 0.2}, "use_cudnn_on_gpu": {"b": true}, "num_host_args": {"i": "0"}, "dilations": {"list": {"i": ["1", "1", "1", "1"]}}, "T": {"type": "DT_FLOAT"}, "fused_ops": {"list": {"s": ["Qmlhc0FkZA==", "UmVsdQ=="]}}, "data_format": {"s": "TkhXQw=="}, "padding": {"s": "U0FNRQ=="}, "filter_format": {"s": "SFdJTw=="}, "epsilon": {"f": 0.0}, "TArgs": {"list": {"type": ["DT_FLOAT"]}}, "num_args": {"i": "1"}, "explicit_paddings": {"list": {}}}}, {"name": "StatefulPartitionedCall/sequential/MobilenetV3large/expanded_conv_5/squeeze_excite/Conv_1/BiasAdd", "op": "_FusedConv2D", "input": ["StatefulPartitionedCall/sequential/MobilenetV3large/expanded_conv_5/squeeze_excite/Relu/Relu", "StatefulPartitionedCall/sequential/MobilenetV3large/expanded_conv_5/squeeze_excite/Conv_1/Conv2D/ReadVariableOp", "StatefulPartitionedCall/sequential/MobilenetV3large/expanded_conv_5/squeeze_excite/Conv_1/BiasAdd/ReadVariableOp"], "device": "/device:CPU:0", "attr": {"use_cudnn_on_gpu": {"b": true}, "strides": {"list": {"i": ["1", "1", "1", "1"]}}, "fused_ops": {"list": {"s": ["Qmlhc0FkZA=="]}}, "data_format": {"s": "TkhXQw=="}, "epsilon": {"f": 0.0}, "num_host_args": {"i": "0"}, "num_args": {"i": "1"}, "padding": {"s": "U0FNRQ=="}, "explicit_paddings": {"list": {}}, "T": {"type": "DT_FLOAT"}, "dilations": {"list": {"i": ["1", "1", "1", "1"]}}, "filter_format": {"s": "SFdJTw=="}, "TArgs": {"list": {"type": ["DT_FLOAT"]}}, "leakyrelu_alpha": {"f": 0.2}}}, {"name": "StatefulPartitionedCall/sequential/MobilenetV3large/tf.math.add_3/Add", "op": "AddV2", "input": ["StatefulPartitionedCall/sequential/MobilenetV3large/expanded_conv_5/squeeze_excite/Conv_1/BiasAdd", "unknown_99"], "attr": {"T": {"type": "DT_FLOAT"}}}, {"name": "StatefulPartitionedCall/sequential/MobilenetV3large/re_lu_14/Relu6", "op": "Relu6", "input": ["StatefulPartitionedCall/sequential/MobilenetV3large/tf.math.add_3/Add"], "attr": {"T": {"type": "DT_FLOAT"}}}, {"name": "StatefulPartitionedCall/sequential/MobilenetV3large/tf.math.multiply_3/Mul", "op": "Mul", "input": ["StatefulPartitionedCall/sequential/MobilenetV3large/tf.math.multiply_3/Mul/y", "StatefulPartitionedCall/sequential/MobilenetV3large/re_lu_14/Relu6"], "attr": {"T": {"type": "DT_FLOAT"}, "_grappler_ArithmeticOptimizer_MinimizeBroadcasts": {"b": true}}}, {"name": "StatefulPartitionedCall/sequential/MobilenetV3large/expanded_conv_5/squeeze_excite/Mul/mul", "op": "Mul", "input": ["StatefulPartitionedCall/sequential/MobilenetV3large/tf.math.multiply_3/Mul", "StatefulPartitionedCall/sequential/MobilenetV3large/expanded_conv_5/depthwise/depthwise"], "attr": {"_grappler_ArithmeticOptimizer_MinimizeBroadcasts": {"b": true}, "T": {"type": "DT_FLOAT"}}}, {"name": "StatefulPartitionedCall/sequential/MobilenetV3large/expanded_conv_5/project/BatchNorm/FusedBatchNormV3", "op": "_FusedConv2D", "input": ["StatefulPartitionedCall/sequential/MobilenetV3large/expanded_conv_5/squeeze_excite/Mul/mul", "StatefulPartitionedCall/sequential/MobilenetV3large/expanded_conv_5/project/Conv2D_weights", "StatefulPartitionedCall/sequential/MobilenetV3large/expanded_conv_5/project/Conv2D_bn_offset"], "device": "/device:CPU:0", "attr": {"use_cudnn_on_gpu": {"b": true}, "padding": {"s": "U0FNRQ=="}, "fused_ops": {"list": {"s": ["Qmlhc0FkZA=="]}}, "dilations": {"list": {"i": ["1", "1", "1", "1"]}}, "explicit_paddings": {"list": {}}, "num_host_args": {"i": "0"}, "strides": {"list": {"i": ["1", "1", "1", "1"]}}, "epsilon": {"f": 0.0}, "TArgs": {"list": {"type": ["DT_FLOAT"]}}, "num_args": {"i": "1"}, "data_format": {"s": "TkhXQw=="}, "filter_format": {"s": "SFdJTw=="}, "T": {"type": "DT_FLOAT"}, "leakyrelu_alpha": {"f": 0.2}}}, {"name": "StatefulPartitionedCall/sequential/MobilenetV3large/expanded_conv_5/Add/add", "op": "AddV2", "input": ["StatefulPartitionedCall/sequential/MobilenetV3large/expanded_conv_4/Add/add", "StatefulPartitionedCall/sequential/MobilenetV3large/expanded_conv_5/project/BatchNorm/FusedBatchNormV3"], "attr": {"T": {"type": "DT_FLOAT"}}}, {"name": "StatefulPartitionedCall/sequential/MobilenetV3large/expanded_conv_6/expand/BatchNorm/FusedBatchNormV3", "op": "_FusedConv2D", "input": ["StatefulPartitionedCall/sequential/MobilenetV3large/expanded_conv_5/Add/add", "StatefulPartitionedCall/sequential/MobilenetV3large/expanded_conv_6/expand/Conv2D_weights", "StatefulPartitionedCall/sequential/MobilenetV3large/expanded_conv_6/expand/Conv2D_bn_offset"], "device": "/device:CPU:0", "attr": {"use_cudnn_on_gpu": {"b": true}, "T": {"type": "DT_FLOAT"}, "dilations": {"list": {"i": ["1", "1", "1", "1"]}}, "epsilon": {"f": 0.0}, "fused_ops": {"list": {"s": ["Qmlhc0FkZA=="]}}, "padding": {"s": "U0FNRQ=="}, "strides": {"list": {"i": ["1", "1", "1", "1"]}}, "leakyrelu_alpha": {"f": 0.2}, "explicit_paddings": {"list": {}}, "filter_format": {"s": "SFdJTw=="}, "num_args": {"i": "1"}, "TArgs": {"list": {"type": ["DT_FLOAT"]}}, "data_format": {"s": "TkhXQw=="}, "num_host_args": {"i": "0"}}}, {"name": "StatefulPartitionedCall/sequential/MobilenetV3large/tf.math.multiply_4/Mul", "op": "Mul", "input": ["StatefulPartitionedCall/sequential/MobilenetV3large/tf.math.multiply_4/Mul/y", "StatefulPartitionedCall/sequential/MobilenetV3large/expanded_conv_6/expand/BatchNorm/FusedBatchNormV3"], "attr": {"_grappler_ArithmeticOptimizer_MinimizeBroadcasts": {"b": true}, "T": {"type": "DT_FLOAT"}}}, {"name": "StatefulPartitionedCall/sequential/MobilenetV3large/tf.math.add_4/Add", "op": "AddV2", "input": ["StatefulPartitionedCall/sequential/MobilenetV3large/expanded_conv_6/expand/BatchNorm/FusedBatchNormV3", "unknown_110"], "attr": {"T": {"type": "DT_FLOAT"}}}, {"name": "StatefulPartitionedCall/sequential/MobilenetV3large/re_lu_15/Relu6", "op": "Relu6", "input": ["StatefulPartitionedCall/sequential/MobilenetV3large/tf.math.add_4/Add"], "attr": {"T": {"type": "DT_FLOAT"}}}, {"name": "StatefulPartitionedCall/sequential/MobilenetV3large/multiply_1/mul", "op": "Mul", "input": ["StatefulPartitionedCall/sequential/MobilenetV3large/tf.math.multiply_4/Mul", "StatefulPartitionedCall/sequential/MobilenetV3large/re_lu_15/Relu6"], "attr": {"T": {"type": "DT_FLOAT"}, "_grappler_ArithmeticOptimizer_MinimizeBroadcasts": {"b": true}}}, {"name": "StatefulPartitionedCall/sequential/MobilenetV3large/expanded_conv_6/depthwise/pad/Pad", "op": "Pad", "input": ["StatefulPartitionedCall/sequential/MobilenetV3large/multiply_1/mul", "StatefulPartitionedCall/sequential/MobilenetV3large/expanded_conv_6/depthwise/pad/Pad/paddings"], "attr": {"Tpaddings": {"type": "DT_INT32"}, "T": {"type": "DT_FLOAT"}}}, {"name": "StatefulPartitionedCall/sequential/MobilenetV3large/expanded_conv_6/depthwise/depthwise", "op": "FusedDepthwiseConv2dNative", "input": ["StatefulPartitionedCall/sequential/MobilenetV3large/expanded_conv_6/depthwise/pad/Pad", "StatefulPartitionedCall/sequential/MobilenetV3large/expanded_conv_6/depthwise/depthwise_weights", "StatefulPartitionedCall/sequential/MobilenetV3large/expanded_conv_6/depthwise/depthwise_bn_offset"], "attr": {"padding": {"s": "VkFMSUQ="}, "num_args": {"i": "1"}, "fused_ops": {"list": {"s": ["Qmlhc0FkZA=="]}}, "dilations": {"list": {"i": ["1", "1", "1", "1"]}}, "data_format": {"s": "TkhXQw=="}, "strides": {"list": {"i": ["1", "2", "2", "1"]}}, "T": {"type": "DT_FLOAT"}, "explicit_paddings": {"list": {}}}}, {"name": "StatefulPartitionedCall/sequential/MobilenetV3large/tf.math.multiply_5/Mul", "op": "Mul", "input": ["StatefulPartitionedCall/sequential/MobilenetV3large/tf.math.multiply_5/Mul/y", "StatefulPartitionedCall/sequential/MobilenetV3large/expanded_conv_6/depthwise/depthwise"], "attr": {"_grappler_ArithmeticOptimizer_MinimizeBroadcasts": {"b": true}, "T": {"type": "DT_FLOAT"}}}, {"name": "StatefulPartitionedCall/sequential/MobilenetV3large/tf.math.add_5/Add", "op": "AddV2", "input": ["StatefulPartitionedCall/sequential/MobilenetV3large/expanded_conv_6/depthwise/depthwise", "unknown_116"], "attr": {"T": {"type": "DT_FLOAT"}}}, {"name": "StatefulPartitionedCall/sequential/MobilenetV3large/re_lu_16/Relu6", "op": "Relu6", "input": ["StatefulPartitionedCall/sequential/MobilenetV3large/tf.math.add_5/Add"], "attr": {"T": {"type": "DT_FLOAT"}}}, {"name": "StatefulPartitionedCall/sequential/MobilenetV3large/multiply_2/mul", "op": "Mul", "input": ["StatefulPartitionedCall/sequential/MobilenetV3large/tf.math.multiply_5/Mul", "StatefulPartitionedCall/sequential/MobilenetV3large/re_lu_16/Relu6"], "attr": {"_grappler_ArithmeticOptimizer_MinimizeBroadcasts": {"b": true}, "T": {"type": "DT_FLOAT"}}}, {"name": "StatefulPartitionedCall/sequential/MobilenetV3large/expanded_conv_6/project/BatchNorm/FusedBatchNormV3", "op": "_FusedConv2D", "input": ["StatefulPartitionedCall/sequential/MobilenetV3large/multiply_2/mul", "StatefulPartitionedCall/sequential/MobilenetV3large/expanded_conv_6/project/Conv2D_weights", "StatefulPartitionedCall/sequential/MobilenetV3large/expanded_conv_6/project/Conv2D_bn_offset"], "device": "/device:CPU:0", "attr": {"T": {"type": "DT_FLOAT"}, "data_format": {"s": "TkhXQw=="}, "TArgs": {"list": {"type": ["DT_FLOAT"]}}, "leakyrelu_alpha": {"f": 0.2}, "explicit_paddings": {"list": {}}, "num_host_args": {"i": "0"}, "epsilon": {"f": 0.0}, "dilations": {"list": {"i": ["1", "1", "1", "1"]}}, "filter_format": {"s": "SFdJTw=="}, "fused_ops": {"list": {"s": ["Qmlhc0FkZA=="]}}, "strides": {"list": {"i": ["1", "1", "1", "1"]}}, "padding": {"s": "U0FNRQ=="}, "num_args": {"i": "1"}, "use_cudnn_on_gpu": {"b": true}}}, {"name": "StatefulPartitionedCall/sequential/MobilenetV3large/expanded_conv_7/expand/BatchNorm/FusedBatchNormV3", "op": "_FusedConv2D", "input": ["StatefulPartitionedCall/sequential/MobilenetV3large/expanded_conv_6/project/BatchNorm/FusedBatchNormV3", "StatefulPartitionedCall/sequential/MobilenetV3large/expanded_conv_7/expand/Conv2D_weights", "StatefulPartitionedCall/sequential/MobilenetV3large/expanded_conv_7/expand/Conv2D_bn_offset"], "device": "/device:CPU:0", "attr": {"strides": {"list": {"i": ["1", "1", "1", "1"]}}, "num_args": {"i": "1"}, "fused_ops": {"list": {"s": ["Qmlhc0FkZA=="]}}, "explicit_paddings": {"list": {}}, "use_cudnn_on_gpu": {"b": true}, "dilations": {"list": {"i": ["1", "1", "1", "1"]}}, "filter_format": {"s": "SFdJTw=="}, "padding": {"s": "U0FNRQ=="}, "epsilon": {"f": 0.0}, "TArgs": {"list": {"type": ["DT_FLOAT"]}}, "T": {"type": "DT_FLOAT"}, "data_format": {"s": "TkhXQw=="}, "num_host_args": {"i": "0"}, "leakyrelu_alpha": {"f": 0.2}}}, {"name": "StatefulPartitionedCall/sequential/MobilenetV3large/tf.math.multiply_6/Mul", "op": "Mul", "input": ["StatefulPartitionedCall/sequential/MobilenetV3large/tf.math.multiply_6/Mul/y", "StatefulPartitionedCall/sequential/MobilenetV3large/expanded_conv_7/expand/BatchNorm/FusedBatchNormV3"], "attr": {"T": {"type": "DT_FLOAT"}, "_grappler_ArithmeticOptimizer_MinimizeBroadcasts": {"b": true}}}, {"name": "StatefulPartitionedCall/sequential/MobilenetV3large/tf.math.add_6/Add", "op": "AddV2", "input": ["StatefulPartitionedCall/sequential/MobilenetV3large/expanded_conv_7/expand/BatchNorm/FusedBatchNormV3", "unknown_127"], "attr": {"T": {"type": "DT_FLOAT"}}}, {"name": "StatefulPartitionedCall/sequential/MobilenetV3large/re_lu_17/Relu6", "op": "Relu6", "input": ["StatefulPartitionedCall/sequential/MobilenetV3large/tf.math.add_6/Add"], "attr": {"T": {"type": "DT_FLOAT"}}}, {"name": "StatefulPartitionedCall/sequential/MobilenetV3large/multiply_3/mul", "op": "Mul", "input": ["StatefulPartitionedCall/sequential/MobilenetV3large/tf.math.multiply_6/Mul", "StatefulPartitionedCall/sequential/MobilenetV3large/re_lu_17/Relu6"], "attr": {"_grappler_ArithmeticOptimizer_MinimizeBroadcasts": {"b": true}, "T": {"type": "DT_FLOAT"}}}, {"name": "StatefulPartitionedCall/sequential/MobilenetV3large/expanded_conv_7/depthwise/depthwise", "op": "FusedDepthwiseConv2dNative", "input": ["StatefulPartitionedCall/sequential/MobilenetV3large/multiply_3/mul", "StatefulPartitionedCall/sequential/MobilenetV3large/expanded_conv_7/depthwise/depthwise_weights", "StatefulPartitionedCall/sequential/MobilenetV3large/expanded_conv_7/depthwise/depthwise_bn_offset"], "attr": {"dilations": {"list": {"i": ["1", "1", "1", "1"]}}, "num_args": {"i": "1"}, "data_format": {"s": "TkhXQw=="}, "fused_ops": {"list": {"s": ["Qmlhc0FkZA=="]}}, "explicit_paddings": {"list": {}}, "strides": {"list": {"i": ["1", "1", "1", "1"]}}, "T": {"type": "DT_FLOAT"}, "padding": {"s": "U0FNRQ=="}}}, {"name": "StatefulPartitionedCall/sequential/MobilenetV3large/tf.math.multiply_7/Mul", "op": "Mul", "input": ["StatefulPartitionedCall/sequential/MobilenetV3large/tf.math.multiply_7/Mul/y", "StatefulPartitionedCall/sequential/MobilenetV3large/expanded_conv_7/depthwise/depthwise"], "attr": {"_grappler_ArithmeticOptimizer_MinimizeBroadcasts": {"b": true}, "T": {"type": "DT_FLOAT"}}}, {"name": "StatefulPartitionedCall/sequential/MobilenetV3large/tf.math.add_7/Add", "op": "AddV2", "input": ["StatefulPartitionedCall/sequential/MobilenetV3large/expanded_conv_7/depthwise/depthwise", "unknown_133"], "attr": {"T": {"type": "DT_FLOAT"}}}, {"name": "StatefulPartitionedCall/sequential/MobilenetV3large/re_lu_18/Relu6", "op": "Relu6", "input": ["StatefulPartitionedCall/sequential/MobilenetV3large/tf.math.add_7/Add"], "attr": {"T": {"type": "DT_FLOAT"}}}, {"name": "StatefulPartitionedCall/sequential/MobilenetV3large/multiply_4/mul", "op": "Mul", "input": ["StatefulPartitionedCall/sequential/MobilenetV3large/tf.math.multiply_7/Mul", "StatefulPartitionedCall/sequential/MobilenetV3large/re_lu_18/Relu6"], "attr": {"T": {"type": "DT_FLOAT"}, "_grappler_ArithmeticOptimizer_MinimizeBroadcasts": {"b": true}}}, {"name": "StatefulPartitionedCall/sequential/MobilenetV3large/expanded_conv_7/project/BatchNorm/FusedBatchNormV3", "op": "_FusedConv2D", "input": ["StatefulPartitionedCall/sequential/MobilenetV3large/multiply_4/mul", "StatefulPartitionedCall/sequential/MobilenetV3large/expanded_conv_7/project/Conv2D_weights", "StatefulPartitionedCall/sequential/MobilenetV3large/expanded_conv_7/project/Conv2D_bn_offset"], "device": "/device:CPU:0", "attr": {"padding": {"s": "U0FNRQ=="}, "explicit_paddings": {"list": {}}, "num_host_args": {"i": "0"}, "epsilon": {"f": 0.0}, "leakyrelu_alpha": {"f": 0.2}, "num_args": {"i": "1"}, "fused_ops": {"list": {"s": ["Qmlhc0FkZA=="]}}, "data_format": {"s": "TkhXQw=="}, "use_cudnn_on_gpu": {"b": true}, "strides": {"list": {"i": ["1", "1", "1", "1"]}}, "filter_format": {"s": "SFdJTw=="}, "dilations": {"list": {"i": ["1", "1", "1", "1"]}}, "TArgs": {"list": {"type": ["DT_FLOAT"]}}, "T": {"type": "DT_FLOAT"}}}, {"name": "StatefulPartitionedCall/sequential/MobilenetV3large/expanded_conv_7/Add/add", "op": "AddV2", "input": ["StatefulPartitionedCall/sequential/MobilenetV3large/expanded_conv_6/project/BatchNorm/FusedBatchNormV3", "StatefulPartitionedCall/sequential/MobilenetV3large/expanded_conv_7/project/BatchNorm/FusedBatchNormV3"], "attr": {"T": {"type": "DT_FLOAT"}}}, {"name": "StatefulPartitionedCall/sequential/MobilenetV3large/expanded_conv_8/expand/BatchNorm/FusedBatchNormV3", "op": "_FusedConv2D", "input": ["StatefulPartitionedCall/sequential/MobilenetV3large/expanded_conv_7/Add/add", "StatefulPartitionedCall/sequential/MobilenetV3large/expanded_conv_8/expand/Conv2D_weights", "StatefulPartitionedCall/sequential/MobilenetV3large/expanded_conv_8/expand/Conv2D_bn_offset"], "device": "/device:CPU:0", "attr": {"use_cudnn_on_gpu": {"b": true}, "T": {"type": "DT_FLOAT"}, "dilations": {"list": {"i": ["1", "1", "1", "1"]}}, "explicit_paddings": {"list": {}}, "num_host_args": {"i": "0"}, "leakyrelu_alpha": {"f": 0.2}, "filter_format": {"s": "SFdJTw=="}, "padding": {"s": "U0FNRQ=="}, "epsilon": {"f": 0.0}, "num_args": {"i": "1"}, "strides": {"list": {"i": ["1", "1", "1", "1"]}}, "fused_ops": {"list": {"s": ["Qmlhc0FkZA=="]}}, "TArgs": {"list": {"type": ["DT_FLOAT"]}}, "data_format": {"s": "TkhXQw=="}}}, {"name": "StatefulPartitionedCall/sequential/MobilenetV3large/tf.math.multiply_8/Mul", "op": "Mul", "input": ["StatefulPartitionedCall/sequential/MobilenetV3large/tf.math.multiply_8/Mul/y", "StatefulPartitionedCall/sequential/MobilenetV3large/expanded_conv_8/expand/BatchNorm/FusedBatchNormV3"], "attr": {"_grappler_ArithmeticOptimizer_MinimizeBroadcasts": {"b": true}, "T": {"type": "DT_FLOAT"}}}, {"name": "StatefulPartitionedCall/sequential/MobilenetV3large/tf.math.add_8/Add", "op": "AddV2", "input": ["StatefulPartitionedCall/sequential/MobilenetV3large/expanded_conv_8/expand/BatchNorm/FusedBatchNormV3", "unknown_144"], "attr": {"T": {"type": "DT_FLOAT"}}}, {"name": "StatefulPartitionedCall/sequential/MobilenetV3large/re_lu_19/Relu6", "op": "Relu6", "input": ["StatefulPartitionedCall/sequential/MobilenetV3large/tf.math.add_8/Add"], "attr": {"T": {"type": "DT_FLOAT"}}}, {"name": "StatefulPartitionedCall/sequential/MobilenetV3large/multiply_5/mul", "op": "Mul", "input": ["StatefulPartitionedCall/sequential/MobilenetV3large/tf.math.multiply_8/Mul", "StatefulPartitionedCall/sequential/MobilenetV3large/re_lu_19/Relu6"], "attr": {"T": {"type": "DT_FLOAT"}, "_grappler_ArithmeticOptimizer_MinimizeBroadcasts": {"b": true}}}, {"name": "StatefulPartitionedCall/sequential/MobilenetV3large/expanded_conv_8/depthwise/depthwise", "op": "FusedDepthwiseConv2dNative", "input": ["StatefulPartitionedCall/sequential/MobilenetV3large/multiply_5/mul", "StatefulPartitionedCall/sequential/MobilenetV3large/expanded_conv_8/depthwise/depthwise_weights", "StatefulPartitionedCall/sequential/MobilenetV3large/expanded_conv_8/depthwise/depthwise_bn_offset"], "attr": {"data_format": {"s": "TkhXQw=="}, "explicit_paddings": {"list": {}}, "padding": {"s": "U0FNRQ=="}, "num_args": {"i": "1"}, "dilations": {"list": {"i": ["1", "1", "1", "1"]}}, "strides": {"list": {"i": ["1", "1", "1", "1"]}}, "T": {"type": "DT_FLOAT"}, "fused_ops": {"list": {"s": ["Qmlhc0FkZA=="]}}}}, {"name": "StatefulPartitionedCall/sequential/MobilenetV3large/tf.math.multiply_9/Mul", "op": "Mul", "input": ["StatefulPartitionedCall/sequential/MobilenetV3large/tf.math.multiply_9/Mul/y", "StatefulPartitionedCall/sequential/MobilenetV3large/expanded_conv_8/depthwise/depthwise"], "attr": {"T": {"type": "DT_FLOAT"}, "_grappler_ArithmeticOptimizer_MinimizeBroadcasts": {"b": true}}}, {"name": "StatefulPartitionedCall/sequential/MobilenetV3large/tf.math.add_9/Add", "op": "AddV2", "input": ["StatefulPartitionedCall/sequential/MobilenetV3large/expanded_conv_8/depthwise/depthwise", "unknown_150"], "attr": {"T": {"type": "DT_FLOAT"}}}, {"name": "StatefulPartitionedCall/sequential/MobilenetV3large/re_lu_20/Relu6", "op": "Relu6", "input": ["StatefulPartitionedCall/sequential/MobilenetV3large/tf.math.add_9/Add"], "attr": {"T": {"type": "DT_FLOAT"}}}, {"name": "StatefulPartitionedCall/sequential/MobilenetV3large/multiply_6/mul", "op": "Mul", "input": ["StatefulPartitionedCall/sequential/MobilenetV3large/tf.math.multiply_9/Mul", "StatefulPartitionedCall/sequential/MobilenetV3large/re_lu_20/Relu6"], "attr": {"_grappler_ArithmeticOptimizer_MinimizeBroadcasts": {"b": true}, "T": {"type": "DT_FLOAT"}}}, {"name": "StatefulPartitionedCall/sequential/MobilenetV3large/expanded_conv_8/project/BatchNorm/FusedBatchNormV3", "op": "_FusedConv2D", "input": ["StatefulPartitionedCall/sequential/MobilenetV3large/multiply_6/mul", "StatefulPartitionedCall/sequential/MobilenetV3large/expanded_conv_8/project/Conv2D_weights", "StatefulPartitionedCall/sequential/MobilenetV3large/expanded_conv_8/project/Conv2D_bn_offset"], "device": "/device:CPU:0", "attr": {"dilations": {"list": {"i": ["1", "1", "1", "1"]}}, "epsilon": {"f": 0.0}, "padding": {"s": "U0FNRQ=="}, "explicit_paddings": {"list": {}}, "use_cudnn_on_gpu": {"b": true}, "strides": {"list": {"i": ["1", "1", "1", "1"]}}, "filter_format": {"s": "SFdJTw=="}, "leakyrelu_alpha": {"f": 0.2}, "fused_ops": {"list": {"s": ["Qmlhc0FkZA=="]}}, "data_format": {"s": "TkhXQw=="}, "T": {"type": "DT_FLOAT"}, "TArgs": {"list": {"type": ["DT_FLOAT"]}}, "num_args": {"i": "1"}, "num_host_args": {"i": "0"}}}, {"name": "StatefulPartitionedCall/sequential/MobilenetV3large/expanded_conv_8/Add/add", "op": "AddV2", "input": ["StatefulPartitionedCall/sequential/MobilenetV3large/expanded_conv_7/Add/add", "StatefulPartitionedCall/sequential/MobilenetV3large/expanded_conv_8/project/BatchNorm/FusedBatchNormV3"], "attr": {"T": {"type": "DT_FLOAT"}}}, {"name": "StatefulPartitionedCall/sequential/MobilenetV3large/expanded_conv_9/expand/BatchNorm/FusedBatchNormV3", "op": "_FusedConv2D", "input": ["StatefulPartitionedCall/sequential/MobilenetV3large/expanded_conv_8/Add/add", "StatefulPartitionedCall/sequential/MobilenetV3large/expanded_conv_9/expand/Conv2D_weights", "StatefulPartitionedCall/sequential/MobilenetV3large/expanded_conv_9/expand/Conv2D_bn_offset"], "device": "/device:CPU:0", "attr": {"T": {"type": "DT_FLOAT"}, "TArgs": {"list": {"type": ["DT_FLOAT"]}}, "explicit_paddings": {"list": {}}, "filter_format": {"s": "SFdJTw=="}, "padding": {"s": "U0FNRQ=="}, "dilations": {"list": {"i": ["1", "1", "1", "1"]}}, "strides": {"list": {"i": ["1", "1", "1", "1"]}}, "epsilon": {"f": 0.0}, "num_host_args": {"i": "0"}, "num_args": {"i": "1"}, "fused_ops": {"list": {"s": ["Qmlhc0FkZA=="]}}, "leakyrelu_alpha": {"f": 0.2}, "data_format": {"s": "TkhXQw=="}, "use_cudnn_on_gpu": {"b": true}}}, {"name": "StatefulPartitionedCall/sequential/MobilenetV3large/tf.math.multiply_10/Mul", "op": "Mul", "input": ["StatefulPartitionedCall/sequential/MobilenetV3large/tf.math.multiply_10/Mul/y", "StatefulPartitionedCall/sequential/MobilenetV3large/expanded_conv_9/expand/BatchNorm/FusedBatchNormV3"], "attr": {"T": {"type": "DT_FLOAT"}, "_grappler_ArithmeticOptimizer_MinimizeBroadcasts": {"b": true}}}, {"name": "StatefulPartitionedCall/sequential/MobilenetV3large/tf.math.add_10/Add", "op": "AddV2", "input": ["StatefulPartitionedCall/sequential/MobilenetV3large/expanded_conv_9/expand/BatchNorm/FusedBatchNormV3", "unknown_161"], "attr": {"T": {"type": "DT_FLOAT"}}}, {"name": "StatefulPartitionedCall/sequential/MobilenetV3large/re_lu_21/Relu6", "op": "Relu6", "input": ["StatefulPartitionedCall/sequential/MobilenetV3large/tf.math.add_10/Add"], "attr": {"T": {"type": "DT_FLOAT"}}}, {"name": "StatefulPartitionedCall/sequential/MobilenetV3large/multiply_7/mul", "op": "Mul", "input": ["StatefulPartitionedCall/sequential/MobilenetV3large/tf.math.multiply_10/Mul", "StatefulPartitionedCall/sequential/MobilenetV3large/re_lu_21/Relu6"], "attr": {"_grappler_ArithmeticOptimizer_MinimizeBroadcasts": {"b": true}, "T": {"type": "DT_FLOAT"}}}, {"name": "StatefulPartitionedCall/sequential/MobilenetV3large/expanded_conv_9/depthwise/depthwise", "op": "FusedDepthwiseConv2dNative", "input": ["StatefulPartitionedCall/sequential/MobilenetV3large/multiply_7/mul", "StatefulPartitionedCall/sequential/MobilenetV3large/expanded_conv_9/depthwise/depthwise_weights", "StatefulPartitionedCall/sequential/MobilenetV3large/expanded_conv_9/depthwise/depthwise_bn_offset"], "attr": {"fused_ops": {"list": {"s": ["Qmlhc0FkZA=="]}}, "dilations": {"list": {"i": ["1", "1", "1", "1"]}}, "padding": {"s": "U0FNRQ=="}, "num_args": {"i": "1"}, "T": {"type": "DT_FLOAT"}, "data_format": {"s": "TkhXQw=="}, "strides": {"list": {"i": ["1", "1", "1", "1"]}}, "explicit_paddings": {"list": {}}}}, {"name": "StatefulPartitionedCall/sequential/MobilenetV3large/tf.math.multiply_11/Mul", "op": "Mul", "input": ["StatefulPartitionedCall/sequential/MobilenetV3large/tf.math.multiply_11/Mul/y", "StatefulPartitionedCall/sequential/MobilenetV3large/expanded_conv_9/depthwise/depthwise"], "attr": {"T": {"type": "DT_FLOAT"}, "_grappler_ArithmeticOptimizer_MinimizeBroadcasts": {"b": true}}}, {"name": "StatefulPartitionedCall/sequential/MobilenetV3large/tf.math.add_11/Add", "op": "AddV2", "input": ["StatefulPartitionedCall/sequential/MobilenetV3large/expanded_conv_9/depthwise/depthwise", "unknown_167"], "attr": {"T": {"type": "DT_FLOAT"}}}, {"name": "StatefulPartitionedCall/sequential/MobilenetV3large/re_lu_22/Relu6", "op": "Relu6", "input": ["StatefulPartitionedCall/sequential/MobilenetV3large/tf.math.add_11/Add"], "attr": {"T": {"type": "DT_FLOAT"}}}, {"name": "StatefulPartitionedCall/sequential/MobilenetV3large/multiply_8/mul", "op": "Mul", "input": ["StatefulPartitionedCall/sequential/MobilenetV3large/tf.math.multiply_11/Mul", "StatefulPartitionedCall/sequential/MobilenetV3large/re_lu_22/Relu6"], "attr": {"_grappler_ArithmeticOptimizer_MinimizeBroadcasts": {"b": true}, "T": {"type": "DT_FLOAT"}}}, {"name": "StatefulPartitionedCall/sequential/MobilenetV3large/expanded_conv_9/project/BatchNorm/FusedBatchNormV3", "op": "_FusedConv2D", "input": ["StatefulPartitionedCall/sequential/MobilenetV3large/multiply_8/mul", "StatefulPartitionedCall/sequential/MobilenetV3large/expanded_conv_9/project/Conv2D_weights", "StatefulPartitionedCall/sequential/MobilenetV3large/expanded_conv_9/project/Conv2D_bn_offset"], "device": "/device:CPU:0", "attr": {"filter_format": {"s": "SFdJTw=="}, "TArgs": {"list": {"type": ["DT_FLOAT"]}}, "num_host_args": {"i": "0"}, "num_args": {"i": "1"}, "dilations": {"list": {"i": ["1", "1", "1", "1"]}}, "T": {"type": "DT_FLOAT"}, "epsilon": {"f": 0.0}, "strides": {"list": {"i": ["1", "1", "1", "1"]}}, "leakyrelu_alpha": {"f": 0.2}, "padding": {"s": "U0FNRQ=="}, "use_cudnn_on_gpu": {"b": true}, "data_format": {"s": "TkhXQw=="}, "explicit_paddings": {"list": {}}, "fused_ops": {"list": {"s": ["Qmlhc0FkZA=="]}}}}, {"name": "StatefulPartitionedCall/sequential/MobilenetV3large/expanded_conv_9/Add/add", "op": "AddV2", "input": ["StatefulPartitionedCall/sequential/MobilenetV3large/expanded_conv_8/Add/add", "StatefulPartitionedCall/sequential/MobilenetV3large/expanded_conv_9/project/BatchNorm/FusedBatchNormV3"], "attr": {"T": {"type": "DT_FLOAT"}}}, {"name": "StatefulPartitionedCall/sequential/MobilenetV3large/expanded_conv_10/expand/BatchNorm/FusedBatchNormV3", "op": "_FusedConv2D", "input": ["StatefulPartitionedCall/sequential/MobilenetV3large/expanded_conv_9/Add/add", "StatefulPartitionedCall/sequential/MobilenetV3large/expanded_conv_10/expand/Conv2D_weights", "StatefulPartitionedCall/sequential/MobilenetV3large/expanded_conv_10/expand/Conv2D_bn_offset"], "device": "/device:CPU:0", "attr": {"num_args": {"i": "1"}, "use_cudnn_on_gpu": {"b": true}, "data_format": {"s": "TkhXQw=="}, "num_host_args": {"i": "0"}, "fused_ops": {"list": {"s": ["Qmlhc0FkZA=="]}}, "padding": {"s": "U0FNRQ=="}, "filter_format": {"s": "SFdJTw=="}, "leakyrelu_alpha": {"f": 0.2}, "explicit_paddings": {"list": {}}, "epsilon": {"f": 0.0}, "TArgs": {"list": {"type": ["DT_FLOAT"]}}, "strides": {"list": {"i": ["1", "1", "1", "1"]}}, "dilations": {"list": {"i": ["1", "1", "1", "1"]}}, "T": {"type": "DT_FLOAT"}}}, {"name": "StatefulPartitionedCall/sequential/MobilenetV3large/tf.math.multiply_12/Mul", "op": "Mul", "input": ["StatefulPartitionedCall/sequential/MobilenetV3large/tf.math.multiply_12/Mul/y", "StatefulPartitionedCall/sequential/MobilenetV3large/expanded_conv_10/expand/BatchNorm/FusedBatchNormV3"], "attr": {"_grappler_ArithmeticOptimizer_MinimizeBroadcasts": {"b": true}, "T": {"type": "DT_FLOAT"}}}, {"name": "StatefulPartitionedCall/sequential/MobilenetV3large/tf.math.add_12/Add", "op": "AddV2", "input": ["StatefulPartitionedCall/sequential/MobilenetV3large/expanded_conv_10/expand/BatchNorm/FusedBatchNormV3", "unknown_178"], "attr": {"T": {"type": "DT_FLOAT"}}}, {"name": "StatefulPartitionedCall/sequential/MobilenetV3large/re_lu_23/Relu6", "op": "Relu6", "input": ["StatefulPartitionedCall/sequential/MobilenetV3large/tf.math.add_12/Add"], "attr": {"T": {"type": "DT_FLOAT"}}}, {"name": "StatefulPartitionedCall/sequential/MobilenetV3large/multiply_9/mul", "op": "Mul", "input": ["StatefulPartitionedCall/sequential/MobilenetV3large/tf.math.multiply_12/Mul", "StatefulPartitionedCall/sequential/MobilenetV3large/re_lu_23/Relu6"], "attr": {"_grappler_ArithmeticOptimizer_MinimizeBroadcasts": {"b": true}, "T": {"type": "DT_FLOAT"}}}, {"name": "StatefulPartitionedCall/sequential/MobilenetV3large/expanded_conv_10/depthwise/depthwise", "op": "FusedDepthwiseConv2dNative", "input": ["StatefulPartitionedCall/sequential/MobilenetV3large/multiply_9/mul", "StatefulPartitionedCall/sequential/MobilenetV3large/expanded_conv_10/depthwise/depthwise_weights", "StatefulPartitionedCall/sequential/MobilenetV3large/expanded_conv_10/depthwise/depthwise_bn_offset"], "attr": {"padding": {"s": "U0FNRQ=="}, "explicit_paddings": {"list": {}}, "dilations": {"list": {"i": ["1", "1", "1", "1"]}}, "fused_ops": {"list": {"s": ["Qmlhc0FkZA=="]}}, "T": {"type": "DT_FLOAT"}, "strides": {"list": {"i": ["1", "1", "1", "1"]}}, "num_args": {"i": "1"}, "data_format": {"s": "TkhXQw=="}}}, {"name": "StatefulPartitionedCall/sequential/MobilenetV3large/tf.math.multiply_13/Mul", "op": "Mul", "input": ["StatefulPartitionedCall/sequential/MobilenetV3large/tf.math.multiply_13/Mul/y", "StatefulPartitionedCall/sequential/MobilenetV3large/expanded_conv_10/depthwise/depthwise"], "attr": {"T": {"type": "DT_FLOAT"}, "_grappler_ArithmeticOptimizer_MinimizeBroadcasts": {"b": true}}}, {"name": "StatefulPartitionedCall/sequential/MobilenetV3large/tf.math.add_13/Add", "op": "AddV2", "input": ["StatefulPartitionedCall/sequential/MobilenetV3large/expanded_conv_10/depthwise/depthwise", "unknown_184"], "attr": {"T": {"type": "DT_FLOAT"}}}, {"name": "StatefulPartitionedCall/sequential/MobilenetV3large/re_lu_24/Relu6", "op": "Relu6", "input": ["StatefulPartitionedCall/sequential/MobilenetV3large/tf.math.add_13/Add"], "attr": {"T": {"type": "DT_FLOAT"}}}, {"name": "StatefulPartitionedCall/sequential/MobilenetV3large/multiply_10/mul", "op": "Mul", "input": ["StatefulPartitionedCall/sequential/MobilenetV3large/tf.math.multiply_13/Mul", "StatefulPartitionedCall/sequential/MobilenetV3large/re_lu_24/Relu6"], "attr": {"_grappler_ArithmeticOptimizer_MinimizeBroadcasts": {"b": true}, "T": {"type": "DT_FLOAT"}}}, {"name": "StatefulPartitionedCall/sequential/MobilenetV3large/expanded_conv_10/squeeze_excite/AvgPool/Mean", "op": "Mean", "input": ["StatefulPartitionedCall/sequential/MobilenetV3large/multiply_10/mul", "StatefulPartitionedCall/sequential/MobilenetV3large/expanded_conv_10/squeeze_excite/AvgPool/Mean/reduction_indices"], "attr": {"keep_dims": {"b": true}, "Tidx": {"type": "DT_INT32"}, "T": {"type": "DT_FLOAT"}}}, {"name": "StatefulPartitionedCall/sequential/MobilenetV3large/expanded_conv_10/squeeze_excite/Relu/Relu", "op": "_FusedConv2D", "input": ["StatefulPartitionedCall/sequential/MobilenetV3large/expanded_conv_10/squeeze_excite/AvgPool/Mean", "StatefulPartitionedCall/sequential/MobilenetV3large/expanded_conv_10/squeeze_excite/Conv/Conv2D/ReadVariableOp", "StatefulPartitionedCall/sequential/MobilenetV3large/expanded_conv_10/squeeze_excite/Conv/BiasAdd/ReadVariableOp"], "device": "/device:CPU:0", "attr": {"T": {"type": "DT_FLOAT"}, "strides": {"list": {"i": ["1", "1", "1", "1"]}}, "fused_ops": {"list": {"s": ["Qmlhc0FkZA==", "UmVsdQ=="]}}, "TArgs": {"list": {"type": ["DT_FLOAT"]}}, "padding": {"s": "U0FNRQ=="}, "data_format": {"s": "TkhXQw=="}, "explicit_paddings": {"list": {}}, "num_host_args": {"i": "0"}, "leakyrelu_alpha": {"f": 0.2}, "dilations": {"list": {"i": ["1", "1", "1", "1"]}}, "use_cudnn_on_gpu": {"b": true}, "filter_format": {"s": "SFdJTw=="}, "num_args": {"i": "1"}, "epsilon": {"f": 0.0}}}, {"name": "StatefulPartitionedCall/sequential/MobilenetV3large/expanded_conv_10/squeeze_excite/Conv_1/BiasAdd", "op": "_FusedConv2D", "input": ["StatefulPartitionedCall/sequential/MobilenetV3large/expanded_conv_10/squeeze_excite/Relu/Relu", "StatefulPartitionedCall/sequential/MobilenetV3large/expanded_conv_10/squeeze_excite/Conv_1/Conv2D/ReadVariableOp", "StatefulPartitionedCall/sequential/MobilenetV3large/expanded_conv_10/squeeze_excite/Conv_1/BiasAdd/ReadVariableOp"], "device": "/device:CPU:0", "attr": {"data_format": {"s": "TkhXQw=="}, "TArgs": {"list": {"type": ["DT_FLOAT"]}}, "T": {"type": "DT_FLOAT"}, "use_cudnn_on_gpu": {"b": true}, "leakyrelu_alpha": {"f": 0.2}, "num_host_args": {"i": "0"}, "dilations": {"list": {"i": ["1", "1", "1", "1"]}}, "strides": {"list": {"i": ["1", "1", "1", "1"]}}, "filter_format": {"s": "SFdJTw=="}, "epsilon": {"f": 0.0}, "fused_ops": {"list": {"s": ["Qmlhc0FkZA=="]}}, "num_args": {"i": "1"}, "padding": {"s": "U0FNRQ=="}, "explicit_paddings": {"list": {}}}}, {"name": "StatefulPartitionedCall/sequential/MobilenetV3large/tf.math.add_14/Add", "op": "AddV2", "input": ["StatefulPartitionedCall/sequential/MobilenetV3large/expanded_conv_10/squeeze_excite/Conv_1/BiasAdd", "unknown_189"], "attr": {"T": {"type": "DT_FLOAT"}}}, {"name": "StatefulPartitionedCall/sequential/MobilenetV3large/re_lu_25/Relu6", "op": "Relu6", "input": ["StatefulPartitionedCall/sequential/MobilenetV3large/tf.math.add_14/Add"], "attr": {"T": {"type": "DT_FLOAT"}}}, {"name": "StatefulPartitionedCall/sequential/MobilenetV3large/tf.math.multiply_14/Mul", "op": "Mul", "input": ["StatefulPartitionedCall/sequential/MobilenetV3large/tf.math.multiply_14/Mul/y", "StatefulPartitionedCall/sequential/MobilenetV3large/re_lu_25/Relu6"], "attr": {"_grappler_ArithmeticOptimizer_MinimizeBroadcasts": {"b": true}, "T": {"type": "DT_FLOAT"}}}, {"name": "StatefulPartitionedCall/sequential/MobilenetV3large/expanded_conv_10/squeeze_excite/Mul/mul", "op": "Mul", "input": ["StatefulPartitionedCall/sequential/MobilenetV3large/tf.math.multiply_14/Mul", "StatefulPartitionedCall/sequential/MobilenetV3large/multiply_10/mul"], "attr": {"_grappler_ArithmeticOptimizer_MinimizeBroadcasts": {"b": true}, "T": {"type": "DT_FLOAT"}}}, {"name": "StatefulPartitionedCall/sequential/MobilenetV3large/expanded_conv_10/project/BatchNorm/FusedBatchNormV3", "op": "_FusedConv2D", "input": ["StatefulPartitionedCall/sequential/MobilenetV3large/expanded_conv_10/squeeze_excite/Mul/mul", "StatefulPartitionedCall/sequential/MobilenetV3large/expanded_conv_10/project/Conv2D_weights", "StatefulPartitionedCall/sequential/MobilenetV3large/expanded_conv_10/project/Conv2D_bn_offset"], "device": "/device:CPU:0", "attr": {"leakyrelu_alpha": {"f": 0.2}, "fused_ops": {"list": {"s": ["Qmlhc0FkZA=="]}}, "explicit_paddings": {"list": {}}, "T": {"type": "DT_FLOAT"}, "padding": {"s": "U0FNRQ=="}, "epsilon": {"f": 0.0}, "dilations": {"list": {"i": ["1", "1", "1", "1"]}}, "num_host_args": {"i": "0"}, "data_format": {"s": "TkhXQw=="}, "strides": {"list": {"i": ["1", "1", "1", "1"]}}, "filter_format": {"s": "SFdJTw=="}, "TArgs": {"list": {"type": ["DT_FLOAT"]}}, "num_args": {"i": "1"}, "use_cudnn_on_gpu": {"b": true}}}, {"name": "StatefulPartitionedCall/sequential/MobilenetV3large/expanded_conv_11/expand/BatchNorm/FusedBatchNormV3", "op": "_FusedConv2D", "input": ["StatefulPartitionedCall/sequential/MobilenetV3large/expanded_conv_10/project/BatchNorm/FusedBatchNormV3", "StatefulPartitionedCall/sequential/MobilenetV3large/expanded_conv_11/expand/Conv2D_weights", "StatefulPartitionedCall/sequential/MobilenetV3large/expanded_conv_11/expand/Conv2D_bn_offset"], "device": "/device:CPU:0", "attr": {"num_host_args": {"i": "0"}, "TArgs": {"list": {"type": ["DT_FLOAT"]}}, "data_format": {"s": "TkhXQw=="}, "T": {"type": "DT_FLOAT"}, "explicit_paddings": {"list": {}}, "num_args": {"i": "1"}, "filter_format": {"s": "SFdJTw=="}, "padding": {"s": "U0FNRQ=="}, "strides": {"list": {"i": ["1", "1", "1", "1"]}}, "leakyrelu_alpha": {"f": 0.2}, "epsilon": {"f": 0.0}, "fused_ops": {"list": {"s": ["Qmlhc0FkZA=="]}}, "dilations": {"list": {"i": ["1", "1", "1", "1"]}}, "use_cudnn_on_gpu": {"b": true}}}, {"name": "StatefulPartitionedCall/sequential/MobilenetV3large/tf.math.multiply_15/Mul", "op": "Mul", "input": ["StatefulPartitionedCall/sequential/MobilenetV3large/tf.math.multiply_15/Mul/y", "StatefulPartitionedCall/sequential/MobilenetV3large/expanded_conv_11/expand/BatchNorm/FusedBatchNormV3"], "attr": {"_grappler_ArithmeticOptimizer_MinimizeBroadcasts": {"b": true}, "T": {"type": "DT_FLOAT"}}}, {"name": "StatefulPartitionedCall/sequential/MobilenetV3large/tf.math.add_15/Add", "op": "AddV2", "input": ["StatefulPartitionedCall/sequential/MobilenetV3large/expanded_conv_11/expand/BatchNorm/FusedBatchNormV3", "unknown_200"], "attr": {"T": {"type": "DT_FLOAT"}}}, {"name": "StatefulPartitionedCall/sequential/MobilenetV3large/re_lu_26/Relu6", "op": "Relu6", "input": ["StatefulPartitionedCall/sequential/MobilenetV3large/tf.math.add_15/Add"], "attr": {"T": {"type": "DT_FLOAT"}}}, {"name": "StatefulPartitionedCall/sequential/MobilenetV3large/multiply_11/mul", "op": "Mul", "input": ["StatefulPartitionedCall/sequential/MobilenetV3large/tf.math.multiply_15/Mul", "StatefulPartitionedCall/sequential/MobilenetV3large/re_lu_26/Relu6"], "attr": {"_grappler_ArithmeticOptimizer_MinimizeBroadcasts": {"b": true}, "T": {"type": "DT_FLOAT"}}}, {"name": "StatefulPartitionedCall/sequential/MobilenetV3large/expanded_conv_11/depthwise/depthwise", "op": "FusedDepthwiseConv2dNative", "input": ["StatefulPartitionedCall/sequential/MobilenetV3large/multiply_11/mul", "StatefulPartitionedCall/sequential/MobilenetV3large/expanded_conv_11/depthwise/depthwise_weights", "StatefulPartitionedCall/sequential/MobilenetV3large/expanded_conv_11/depthwise/depthwise_bn_offset"], "attr": {"padding": {"s": "U0FNRQ=="}, "num_args": {"i": "1"}, "fused_ops": {"list": {"s": ["Qmlhc0FkZA=="]}}, "data_format": {"s": "TkhXQw=="}, "explicit_paddings": {"list": {}}, "strides": {"list": {"i": ["1", "1", "1", "1"]}}, "dilations": {"list": {"i": ["1", "1", "1", "1"]}}, "T": {"type": "DT_FLOAT"}}}, {"name": "StatefulPartitionedCall/sequential/MobilenetV3large/tf.math.multiply_16/Mul", "op": "Mul", "input": ["StatefulPartitionedCall/sequential/MobilenetV3large/tf.math.multiply_16/Mul/y", "StatefulPartitionedCall/sequential/MobilenetV3large/expanded_conv_11/depthwise/depthwise"], "attr": {"T": {"type": "DT_FLOAT"}, "_grappler_ArithmeticOptimizer_MinimizeBroadcasts": {"b": true}}}, {"name": "StatefulPartitionedCall/sequential/MobilenetV3large/tf.math.add_16/Add", "op": "AddV2", "input": ["StatefulPartitionedCall/sequential/MobilenetV3large/expanded_conv_11/depthwise/depthwise", "unknown_206"], "attr": {"T": {"type": "DT_FLOAT"}}}, {"name": "StatefulPartitionedCall/sequential/MobilenetV3large/re_lu_27/Relu6", "op": "Relu6", "input": ["StatefulPartitionedCall/sequential/MobilenetV3large/tf.math.add_16/Add"], "attr": {"T": {"type": "DT_FLOAT"}}}, {"name": "StatefulPartitionedCall/sequential/MobilenetV3large/multiply_12/mul", "op": "Mul", "input": ["StatefulPartitionedCall/sequential/MobilenetV3large/tf.math.multiply_16/Mul", "StatefulPartitionedCall/sequential/MobilenetV3large/re_lu_27/Relu6"], "attr": {"_grappler_ArithmeticOptimizer_MinimizeBroadcasts": {"b": true}, "T": {"type": "DT_FLOAT"}}}, {"name": "StatefulPartitionedCall/sequential/MobilenetV3large/expanded_conv_11/squeeze_excite/AvgPool/Mean", "op": "Mean", "input": ["StatefulPartitionedCall/sequential/MobilenetV3large/multiply_12/mul", "StatefulPartitionedCall/sequential/MobilenetV3large/expanded_conv_11/squeeze_excite/AvgPool/Mean/reduction_indices"], "attr": {"keep_dims": {"b": true}, "Tidx": {"type": "DT_INT32"}, "T": {"type": "DT_FLOAT"}}}, {"name": "StatefulPartitionedCall/sequential/MobilenetV3large/expanded_conv_11/squeeze_excite/Relu/Relu", "op": "_FusedConv2D", "input": ["StatefulPartitionedCall/sequential/MobilenetV3large/expanded_conv_11/squeeze_excite/AvgPool/Mean", "StatefulPartitionedCall/sequential/MobilenetV3large/expanded_conv_11/squeeze_excite/Conv/Conv2D/ReadVariableOp", "StatefulPartitionedCall/sequential/MobilenetV3large/expanded_conv_11/squeeze_excite/Conv/BiasAdd/ReadVariableOp"], "device": "/device:CPU:0", "attr": {"num_host_args": {"i": "0"}, "padding": {"s": "U0FNRQ=="}, "dilations": {"list": {"i": ["1", "1", "1", "1"]}}, "leakyrelu_alpha": {"f": 0.2}, "TArgs": {"list": {"type": ["DT_FLOAT"]}}, "explicit_paddings": {"list": {}}, "use_cudnn_on_gpu": {"b": true}, "strides": {"list": {"i": ["1", "1", "1", "1"]}}, "num_args": {"i": "1"}, "epsilon": {"f": 0.0}, "T": {"type": "DT_FLOAT"}, "fused_ops": {"list": {"s": ["Qmlhc0FkZA==", "UmVsdQ=="]}}, "data_format": {"s": "TkhXQw=="}, "filter_format": {"s": "SFdJTw=="}}}, {"name": "StatefulPartitionedCall/sequential/MobilenetV3large/expanded_conv_11/squeeze_excite/Conv_1/BiasAdd", "op": "_FusedConv2D", "input": ["StatefulPartitionedCall/sequential/MobilenetV3large/expanded_conv_11/squeeze_excite/Relu/Relu", "StatefulPartitionedCall/sequential/MobilenetV3large/expanded_conv_11/squeeze_excite/Conv_1/Conv2D/ReadVariableOp", "StatefulPartitionedCall/sequential/MobilenetV3large/expanded_conv_11/squeeze_excite/Conv_1/BiasAdd/ReadVariableOp"], "device": "/device:CPU:0", "attr": {"leakyrelu_alpha": {"f": 0.2}, "num_host_args": {"i": "0"}, "filter_format": {"s": "SFdJTw=="}, "T": {"type": "DT_FLOAT"}, "epsilon": {"f": 0.0}, "fused_ops": {"list": {"s": ["Qmlhc0FkZA=="]}}, "data_format": {"s": "TkhXQw=="}, "TArgs": {"list": {"type": ["DT_FLOAT"]}}, "use_cudnn_on_gpu": {"b": true}, "explicit_paddings": {"list": {}}, "strides": {"list": {"i": ["1", "1", "1", "1"]}}, "dilations": {"list": {"i": ["1", "1", "1", "1"]}}, "padding": {"s": "U0FNRQ=="}, "num_args": {"i": "1"}}}, {"name": "StatefulPartitionedCall/sequential/MobilenetV3large/tf.math.add_17/Add", "op": "AddV2", "input": ["StatefulPartitionedCall/sequential/MobilenetV3large/expanded_conv_11/squeeze_excite/Conv_1/BiasAdd", "unknown_211"], "attr": {"T": {"type": "DT_FLOAT"}}}, {"name": "StatefulPartitionedCall/sequential/MobilenetV3large/re_lu_28/Relu6", "op": "Relu6", "input": ["StatefulPartitionedCall/sequential/MobilenetV3large/tf.math.add_17/Add"], "attr": {"T": {"type": "DT_FLOAT"}}}, {"name": "StatefulPartitionedCall/sequential/MobilenetV3large/tf.math.multiply_17/Mul", "op": "Mul", "input": ["StatefulPartitionedCall/sequential/MobilenetV3large/tf.math.multiply_17/Mul/y", "StatefulPartitionedCall/sequential/MobilenetV3large/re_lu_28/Relu6"], "attr": {"T": {"type": "DT_FLOAT"}, "_grappler_ArithmeticOptimizer_MinimizeBroadcasts": {"b": true}}}, {"name": "StatefulPartitionedCall/sequential/MobilenetV3large/expanded_conv_11/squeeze_excite/Mul/mul", "op": "Mul", "input": ["StatefulPartitionedCall/sequential/MobilenetV3large/tf.math.multiply_17/Mul", "StatefulPartitionedCall/sequential/MobilenetV3large/multiply_12/mul"], "attr": {"T": {"type": "DT_FLOAT"}, "_grappler_ArithmeticOptimizer_MinimizeBroadcasts": {"b": true}}}, {"name": "StatefulPartitionedCall/sequential/MobilenetV3large/expanded_conv_11/project/BatchNorm/FusedBatchNormV3", "op": "_FusedConv2D", "input": ["StatefulPartitionedCall/sequential/MobilenetV3large/expanded_conv_11/squeeze_excite/Mul/mul", "StatefulPartitionedCall/sequential/MobilenetV3large/expanded_conv_11/project/Conv2D_weights", "StatefulPartitionedCall/sequential/MobilenetV3large/expanded_conv_11/project/Conv2D_bn_offset"], "device": "/device:CPU:0", "attr": {"filter_format": {"s": "SFdJTw=="}, "strides": {"list": {"i": ["1", "1", "1", "1"]}}, "T": {"type": "DT_FLOAT"}, "data_format": {"s": "TkhXQw=="}, "fused_ops": {"list": {"s": ["Qmlhc0FkZA=="]}}, "explicit_paddings": {"list": {}}, "padding": {"s": "U0FNRQ=="}, "TArgs": {"list": {"type": ["DT_FLOAT"]}}, "leakyrelu_alpha": {"f": 0.2}, "num_args": {"i": "1"}, "num_host_args": {"i": "0"}, "dilations": {"list": {"i": ["1", "1", "1", "1"]}}, "epsilon": {"f": 0.0}, "use_cudnn_on_gpu": {"b": true}}}, {"name": "StatefulPartitionedCall/sequential/MobilenetV3large/expanded_conv_11/Add/add", "op": "AddV2", "input": ["StatefulPartitionedCall/sequential/MobilenetV3large/expanded_conv_10/project/BatchNorm/FusedBatchNormV3", "StatefulPartitionedCall/sequential/MobilenetV3large/expanded_conv_11/project/BatchNorm/FusedBatchNormV3"], "attr": {"T": {"type": "DT_FLOAT"}}}, {"name": "StatefulPartitionedCall/sequential/MobilenetV3large/expanded_conv_12/expand/BatchNorm/FusedBatchNormV3", "op": "_FusedConv2D", "input": ["StatefulPartitionedCall/sequential/MobilenetV3large/expanded_conv_11/Add/add", "StatefulPartitionedCall/sequential/MobilenetV3large/expanded_conv_12/expand/Conv2D_weights", "StatefulPartitionedCall/sequential/MobilenetV3large/expanded_conv_12/expand/Conv2D_bn_offset"], "device": "/device:CPU:0", "attr": {"T": {"type": "DT_FLOAT"}, "num_host_args": {"i": "0"}, "num_args": {"i": "1"}, "use_cudnn_on_gpu": {"b": true}, "data_format": {"s": "TkhXQw=="}, "fused_ops": {"list": {"s": ["Qmlhc0FkZA=="]}}, "dilations": {"list": {"i": ["1", "1", "1", "1"]}}, "TArgs": {"list": {"type": ["DT_FLOAT"]}}, "explicit_paddings": {"list": {}}, "filter_format": {"s": "SFdJTw=="}, "strides": {"list": {"i": ["1", "1", "1", "1"]}}, "padding": {"s": "U0FNRQ=="}, "leakyrelu_alpha": {"f": 0.2}, "epsilon": {"f": 0.0}}}, {"name": "StatefulPartitionedCall/sequential/MobilenetV3large/tf.math.multiply_18/Mul", "op": "Mul", "input": ["StatefulPartitionedCall/sequential/MobilenetV3large/tf.math.multiply_18/Mul/y", "StatefulPartitionedCall/sequential/MobilenetV3large/expanded_conv_12/expand/BatchNorm/FusedBatchNormV3"], "attr": {"T": {"type": "DT_FLOAT"}, "_grappler_ArithmeticOptimizer_MinimizeBroadcasts": {"b": true}}}, {"name": "StatefulPartitionedCall/sequential/MobilenetV3large/tf.math.add_18/Add", "op": "AddV2", "input": ["StatefulPartitionedCall/sequential/MobilenetV3large/expanded_conv_12/expand/BatchNorm/FusedBatchNormV3", "unknown_222"], "attr": {"T": {"type": "DT_FLOAT"}}}, {"name": "StatefulPartitionedCall/sequential/MobilenetV3large/re_lu_29/Relu6", "op": "Relu6", "input": ["StatefulPartitionedCall/sequential/MobilenetV3large/tf.math.add_18/Add"], "attr": {"T": {"type": "DT_FLOAT"}}}, {"name": "StatefulPartitionedCall/sequential/MobilenetV3large/multiply_13/mul", "op": "Mul", "input": ["StatefulPartitionedCall/sequential/MobilenetV3large/tf.math.multiply_18/Mul", "StatefulPartitionedCall/sequential/MobilenetV3large/re_lu_29/Relu6"], "attr": {"T": {"type": "DT_FLOAT"}, "_grappler_ArithmeticOptimizer_MinimizeBroadcasts": {"b": true}}}, {"name": "StatefulPartitionedCall/sequential/MobilenetV3large/expanded_conv_12/depthwise/pad/Pad", "op": "Pad", "input": ["StatefulPartitionedCall/sequential/MobilenetV3large/multiply_13/mul", "StatefulPartitionedCall/sequential/MobilenetV3large/expanded_conv_12/depthwise/pad/Pad/paddings"], "attr": {"Tpaddings": {"type": "DT_INT32"}, "T": {"type": "DT_FLOAT"}}}, {"name": "StatefulPartitionedCall/sequential/MobilenetV3large/expanded_conv_12/depthwise/depthwise", "op": "FusedDepthwiseConv2dNative", "input": ["StatefulPartitionedCall/sequential/MobilenetV3large/expanded_conv_12/depthwise/pad/Pad", "StatefulPartitionedCall/sequential/MobilenetV3large/expanded_conv_12/depthwise/depthwise_weights", "StatefulPartitionedCall/sequential/MobilenetV3large/expanded_conv_12/depthwise/depthwise_bn_offset"], "attr": {"dilations": {"list": {"i": ["1", "1", "1", "1"]}}, "T": {"type": "DT_FLOAT"}, "fused_ops": {"list": {"s": ["Qmlhc0FkZA=="]}}, "strides": {"list": {"i": ["1", "2", "2", "1"]}}, "padding": {"s": "VkFMSUQ="}, "num_args": {"i": "1"}, "data_format": {"s": "TkhXQw=="}, "explicit_paddings": {"list": {}}}}, {"name": "StatefulPartitionedCall/sequential/MobilenetV3large/tf.math.multiply_19/Mul", "op": "Mul", "input": ["StatefulPartitionedCall/sequential/MobilenetV3large/tf.math.multiply_19/Mul/y", "StatefulPartitionedCall/sequential/MobilenetV3large/expanded_conv_12/depthwise/depthwise"], "attr": {"T": {"type": "DT_FLOAT"}, "_grappler_ArithmeticOptimizer_MinimizeBroadcasts": {"b": true}}}, {"name": "StatefulPartitionedCall/sequential/MobilenetV3large/tf.math.add_19/Add", "op": "AddV2", "input": ["StatefulPartitionedCall/sequential/MobilenetV3large/expanded_conv_12/depthwise/depthwise", "unknown_228"], "attr": {"T": {"type": "DT_FLOAT"}}}, {"name": "StatefulPartitionedCall/sequential/MobilenetV3large/re_lu_30/Relu6", "op": "Relu6", "input": ["StatefulPartitionedCall/sequential/MobilenetV3large/tf.math.add_19/Add"], "attr": {"T": {"type": "DT_FLOAT"}}}, {"name": "StatefulPartitionedCall/sequential/MobilenetV3large/multiply_14/mul", "op": "Mul", "input": ["StatefulPartitionedCall/sequential/MobilenetV3large/tf.math.multiply_19/Mul", "StatefulPartitionedCall/sequential/MobilenetV3large/re_lu_30/Relu6"], "attr": {"_grappler_ArithmeticOptimizer_MinimizeBroadcasts": {"b": true}, "T": {"type": "DT_FLOAT"}}}, {"name": "StatefulPartitionedCall/sequential/MobilenetV3large/expanded_conv_12/squeeze_excite/AvgPool/Mean", "op": "Mean", "input": ["StatefulPartitionedCall/sequential/MobilenetV3large/multiply_14/mul", "StatefulPartitionedCall/sequential/MobilenetV3large/expanded_conv_12/squeeze_excite/AvgPool/Mean/reduction_indices"], "attr": {"Tidx": {"type": "DT_INT32"}, "T": {"type": "DT_FLOAT"}, "keep_dims": {"b": true}}}, {"name": "StatefulPartitionedCall/sequential/MobilenetV3large/expanded_conv_12/squeeze_excite/Relu/Relu", "op": "_FusedConv2D", "input": ["StatefulPartitionedCall/sequential/MobilenetV3large/expanded_conv_12/squeeze_excite/AvgPool/Mean", "StatefulPartitionedCall/sequential/MobilenetV3large/expanded_conv_12/squeeze_excite/Conv/Conv2D/ReadVariableOp", "StatefulPartitionedCall/sequential/MobilenetV3large/expanded_conv_12/squeeze_excite/Conv/BiasAdd/ReadVariableOp"], "device": "/device:CPU:0", "attr": {"explicit_paddings": {"list": {}}, "num_host_args": {"i": "0"}, "leakyrelu_alpha": {"f": 0.2}, "padding": {"s": "U0FNRQ=="}, "epsilon": {"f": 0.0}, "strides": {"list": {"i": ["1", "1", "1", "1"]}}, "data_format": {"s": "TkhXQw=="}, "dilations": {"list": {"i": ["1", "1", "1", "1"]}}, "num_args": {"i": "1"}, "filter_format": {"s": "SFdJTw=="}, "T": {"type": "DT_FLOAT"}, "TArgs": {"list": {"type": ["DT_FLOAT"]}}, "fused_ops": {"list": {"s": ["Qmlhc0FkZA==", "UmVsdQ=="]}}, "use_cudnn_on_gpu": {"b": true}}}, {"name": "StatefulPartitionedCall/sequential/MobilenetV3large/expanded_conv_12/squeeze_excite/Conv_1/BiasAdd", "op": "_FusedConv2D", "input": ["StatefulPartitionedCall/sequential/MobilenetV3large/expanded_conv_12/squeeze_excite/Relu/Relu", "StatefulPartitionedCall/sequential/MobilenetV3large/expanded_conv_12/squeeze_excite/Conv_1/Conv2D/ReadVariableOp", "StatefulPartitionedCall/sequential/MobilenetV3large/expanded_conv_12/squeeze_excite/Conv_1/BiasAdd/ReadVariableOp"], "device": "/device:CPU:0", "attr": {"explicit_paddings": {"list": {}}, "strides": {"list": {"i": ["1", "1", "1", "1"]}}, "num_host_args": {"i": "0"}, "data_format": {"s": "TkhXQw=="}, "T": {"type": "DT_FLOAT"}, "num_args": {"i": "1"}, "use_cudnn_on_gpu": {"b": true}, "fused_ops": {"list": {"s": ["Qmlhc0FkZA=="]}}, "dilations": {"list": {"i": ["1", "1", "1", "1"]}}, "epsilon": {"f": 0.0}, "TArgs": {"list": {"type": ["DT_FLOAT"]}}, "padding": {"s": "U0FNRQ=="}, "leakyrelu_alpha": {"f": 0.2}, "filter_format": {"s": "SFdJTw=="}}}, {"name": "StatefulPartitionedCall/sequential/MobilenetV3large/tf.math.add_20/Add", "op": "AddV2", "input": ["StatefulPartitionedCall/sequential/MobilenetV3large/expanded_conv_12/squeeze_excite/Conv_1/BiasAdd", "unknown_233"], "attr": {"T": {"type": "DT_FLOAT"}}}, {"name": "StatefulPartitionedCall/sequential/MobilenetV3large/re_lu_31/Relu6", "op": "Relu6", "input": ["StatefulPartitionedCall/sequential/MobilenetV3large/tf.math.add_20/Add"], "attr": {"T": {"type": "DT_FLOAT"}}}, {"name": "StatefulPartitionedCall/sequential/MobilenetV3large/tf.math.multiply_20/Mul", "op": "Mul", "input": ["StatefulPartitionedCall/sequential/MobilenetV3large/tf.math.multiply_20/Mul/y", "StatefulPartitionedCall/sequential/MobilenetV3large/re_lu_31/Relu6"], "attr": {"_grappler_ArithmeticOptimizer_MinimizeBroadcasts": {"b": true}, "T": {"type": "DT_FLOAT"}}}, {"name": "StatefulPartitionedCall/sequential/MobilenetV3large/expanded_conv_12/squeeze_excite/Mul/mul", "op": "Mul", "input": ["StatefulPartitionedCall/sequential/MobilenetV3large/tf.math.multiply_20/Mul", "StatefulPartitionedCall/sequential/MobilenetV3large/multiply_14/mul"], "attr": {"T": {"type": "DT_FLOAT"}, "_grappler_ArithmeticOptimizer_MinimizeBroadcasts": {"b": true}}}, {"name": "StatefulPartitionedCall/sequential/MobilenetV3large/expanded_conv_12/project/BatchNorm/FusedBatchNormV3", "op": "_FusedConv2D", "input": ["StatefulPartitionedCall/sequential/MobilenetV3large/expanded_conv_12/squeeze_excite/Mul/mul", "StatefulPartitionedCall/sequential/MobilenetV3large/expanded_conv_12/project/Conv2D_weights", "StatefulPartitionedCall/sequential/MobilenetV3large/expanded_conv_12/project/Conv2D_bn_offset"], "device": "/device:CPU:0", "attr": {"use_cudnn_on_gpu": {"b": true}, "padding": {"s": "U0FNRQ=="}, "data_format": {"s": "TkhXQw=="}, "strides": {"list": {"i": ["1", "1", "1", "1"]}}, "dilations": {"list": {"i": ["1", "1", "1", "1"]}}, "num_host_args": {"i": "0"}, "filter_format": {"s": "SFdJTw=="}, "T": {"type": "DT_FLOAT"}, "leakyrelu_alpha": {"f": 0.2}, "epsilon": {"f": 0.0}, "explicit_paddings": {"list": {}}, "fused_ops": {"list": {"s": ["Qmlhc0FkZA=="]}}, "TArgs": {"list": {"type": ["DT_FLOAT"]}}, "num_args": {"i": "1"}}}, {"name": "StatefulPartitionedCall/sequential/MobilenetV3large/expanded_conv_13/expand/BatchNorm/FusedBatchNormV3", "op": "_FusedConv2D", "input": ["StatefulPartitionedCall/sequential/MobilenetV3large/expanded_conv_12/project/BatchNorm/FusedBatchNormV3", "StatefulPartitionedCall/sequential/MobilenetV3large/expanded_conv_13/expand/Conv2D_weights", "StatefulPartitionedCall/sequential/MobilenetV3large/expanded_conv_13/expand/Conv2D_bn_offset"], "device": "/device:CPU:0", "attr": {"num_host_args": {"i": "0"}, "strides": {"list": {"i": ["1", "1", "1", "1"]}}, "padding": {"s": "U0FNRQ=="}, "leakyrelu_alpha": {"f": 0.2}, "fused_ops": {"list": {"s": ["Qmlhc0FkZA=="]}}, "num_args": {"i": "1"}, "epsilon": {"f": 0.0}, "data_format": {"s": "TkhXQw=="}, "filter_format": {"s": "SFdJTw=="}, "TArgs": {"list": {"type": ["DT_FLOAT"]}}, "T": {"type": "DT_FLOAT"}, "use_cudnn_on_gpu": {"b": true}, "dilations": {"list": {"i": ["1", "1", "1", "1"]}}, "explicit_paddings": {"list": {}}}}, {"name": "StatefulPartitionedCall/sequential/MobilenetV3large/tf.math.multiply_21/Mul", "op": "Mul", "input": ["StatefulPartitionedCall/sequential/MobilenetV3large/tf.math.multiply_21/Mul/y", "StatefulPartitionedCall/sequential/MobilenetV3large/expanded_conv_13/expand/BatchNorm/FusedBatchNormV3"], "attr": {"T": {"type": "DT_FLOAT"}, "_grappler_ArithmeticOptimizer_MinimizeBroadcasts": {"b": true}}}, {"name": "StatefulPartitionedCall/sequential/MobilenetV3large/tf.math.add_21/Add", "op": "AddV2", "input": ["StatefulPartitionedCall/sequential/MobilenetV3large/expanded_conv_13/expand/BatchNorm/FusedBatchNormV3", "unknown_244"], "attr": {"T": {"type": "DT_FLOAT"}}}, {"name": "StatefulPartitionedCall/sequential/MobilenetV3large/re_lu_32/Relu6", "op": "Relu6", "input": ["StatefulPartitionedCall/sequential/MobilenetV3large/tf.math.add_21/Add"], "attr": {"T": {"type": "DT_FLOAT"}}}, {"name": "StatefulPartitionedCall/sequential/MobilenetV3large/multiply_15/mul", "op": "Mul", "input": ["StatefulPartitionedCall/sequential/MobilenetV3large/tf.math.multiply_21/Mul", "StatefulPartitionedCall/sequential/MobilenetV3large/re_lu_32/Relu6"], "attr": {"T": {"type": "DT_FLOAT"}, "_grappler_ArithmeticOptimizer_MinimizeBroadcasts": {"b": true}}}, {"name": "StatefulPartitionedCall/sequential/MobilenetV3large/expanded_conv_13/depthwise/depthwise", "op": "FusedDepthwiseConv2dNative", "input": ["StatefulPartitionedCall/sequential/MobilenetV3large/multiply_15/mul", "StatefulPartitionedCall/sequential/MobilenetV3large/expanded_conv_13/depthwise/depthwise_weights", "StatefulPartitionedCall/sequential/MobilenetV3large/expanded_conv_13/depthwise/depthwise_bn_offset"], "attr": {"num_args": {"i": "1"}, "explicit_paddings": {"list": {}}, "fused_ops": {"list": {"s": ["Qmlhc0FkZA=="]}}, "dilations": {"list": {"i": ["1", "1", "1", "1"]}}, "strides": {"list": {"i": ["1", "1", "1", "1"]}}, "T": {"type": "DT_FLOAT"}, "data_format": {"s": "TkhXQw=="}, "padding": {"s": "U0FNRQ=="}}}, {"name": "StatefulPartitionedCall/sequential/MobilenetV3large/tf.math.multiply_22/Mul", "op": "Mul", "input": ["StatefulPartitionedCall/sequential/MobilenetV3large/tf.math.multiply_22/Mul/y", "StatefulPartitionedCall/sequential/MobilenetV3large/expanded_conv_13/depthwise/depthwise"], "attr": {"T": {"type": "DT_FLOAT"}, "_grappler_ArithmeticOptimizer_MinimizeBroadcasts": {"b": true}}}, {"name": "StatefulPartitionedCall/sequential/MobilenetV3large/tf.math.add_22/Add", "op": "AddV2", "input": ["StatefulPartitionedCall/sequential/MobilenetV3large/expanded_conv_13/depthwise/depthwise", "unknown_250"], "attr": {"T": {"type": "DT_FLOAT"}}}, {"name": "StatefulPartitionedCall/sequential/MobilenetV3large/re_lu_33/Relu6", "op": "Relu6", "input": ["StatefulPartitionedCall/sequential/MobilenetV3large/tf.math.add_22/Add"], "attr": {"T": {"type": "DT_FLOAT"}}}, {"name": "StatefulPartitionedCall/sequential/MobilenetV3large/multiply_16/mul", "op": "Mul", "input": ["StatefulPartitionedCall/sequential/MobilenetV3large/tf.math.multiply_22/Mul", "StatefulPartitionedCall/sequential/MobilenetV3large/re_lu_33/Relu6"], "attr": {"T": {"type": "DT_FLOAT"}, "_grappler_ArithmeticOptimizer_MinimizeBroadcasts": {"b": true}}}, {"name": "StatefulPartitionedCall/sequential/MobilenetV3large/expanded_conv_13/squeeze_excite/AvgPool/Mean", "op": "Mean", "input": ["StatefulPartitionedCall/sequential/MobilenetV3large/multiply_16/mul", "StatefulPartitionedCall/sequential/MobilenetV3large/expanded_conv_13/squeeze_excite/AvgPool/Mean/reduction_indices"], "attr": {"keep_dims": {"b": true}, "T": {"type": "DT_FLOAT"}, "Tidx": {"type": "DT_INT32"}}}, {"name": "StatefulPartitionedCall/sequential/MobilenetV3large/expanded_conv_13/squeeze_excite/Relu/Relu", "op": "_FusedConv2D", "input": ["StatefulPartitionedCall/sequential/MobilenetV3large/expanded_conv_13/squeeze_excite/AvgPool/Mean", "StatefulPartitionedCall/sequential/MobilenetV3large/expanded_conv_13/squeeze_excite/Conv/Conv2D/ReadVariableOp", "StatefulPartitionedCall/sequential/MobilenetV3large/expanded_conv_13/squeeze_excite/Conv/BiasAdd/ReadVariableOp"], "device": "/device:CPU:0", "attr": {"T": {"type": "DT_FLOAT"}, "use_cudnn_on_gpu": {"b": true}, "explicit_paddings": {"list": {}}, "leakyrelu_alpha": {"f": 0.2}, "num_args": {"i": "1"}, "padding": {"s": "U0FNRQ=="}, "data_format": {"s": "TkhXQw=="}, "filter_format": {"s": "SFdJTw=="}, "dilations": {"list": {"i": ["1", "1", "1", "1"]}}, "TArgs": {"list": {"type": ["DT_FLOAT"]}}, "num_host_args": {"i": "0"}, "epsilon": {"f": 0.0}, "strides": {"list": {"i": ["1", "1", "1", "1"]}}, "fused_ops": {"list": {"s": ["Qmlhc0FkZA==", "UmVsdQ=="]}}}}, {"name": "StatefulPartitionedCall/sequential/MobilenetV3large/expanded_conv_13/squeeze_excite/Conv_1/BiasAdd", "op": "_FusedConv2D", "input": ["StatefulPartitionedCall/sequential/MobilenetV3large/expanded_conv_13/squeeze_excite/Relu/Relu", "StatefulPartitionedCall/sequential/MobilenetV3large/expanded_conv_13/squeeze_excite/Conv_1/Conv2D/ReadVariableOp", "StatefulPartitionedCall/sequential/MobilenetV3large/expanded_conv_13/squeeze_excite/Conv_1/BiasAdd/ReadVariableOp"], "device": "/device:CPU:0", "attr": {"explicit_paddings": {"list": {}}, "strides": {"list": {"i": ["1", "1", "1", "1"]}}, "epsilon": {"f": 0.0}, "padding": {"s": "U0FNRQ=="}, "use_cudnn_on_gpu": {"b": true}, "fused_ops": {"list": {"s": ["Qmlhc0FkZA=="]}}, "TArgs": {"list": {"type": ["DT_FLOAT"]}}, "T": {"type": "DT_FLOAT"}, "filter_format": {"s": "SFdJTw=="}, "leakyrelu_alpha": {"f": 0.2}, "num_host_args": {"i": "0"}, "num_args": {"i": "1"}, "dilations": {"list": {"i": ["1", "1", "1", "1"]}}, "data_format": {"s": "TkhXQw=="}}}, {"name": "StatefulPartitionedCall/sequential/MobilenetV3large/tf.math.add_23/Add", "op": "AddV2", "input": ["StatefulPartitionedCall/sequential/MobilenetV3large/expanded_conv_13/squeeze_excite/Conv_1/BiasAdd", "unknown_255"], "attr": {"T": {"type": "DT_FLOAT"}}}, {"name": "StatefulPartitionedCall/sequential/MobilenetV3large/re_lu_34/Relu6", "op": "Relu6", "input": ["StatefulPartitionedCall/sequential/MobilenetV3large/tf.math.add_23/Add"], "attr": {"T": {"type": "DT_FLOAT"}}}, {"name": "StatefulPartitionedCall/sequential/MobilenetV3large/tf.math.multiply_23/Mul", "op": "Mul", "input": ["StatefulPartitionedCall/sequential/MobilenetV3large/tf.math.multiply_23/Mul/y", "StatefulPartitionedCall/sequential/MobilenetV3large/re_lu_34/Relu6"], "attr": {"T": {"type": "DT_FLOAT"}, "_grappler_ArithmeticOptimizer_MinimizeBroadcasts": {"b": true}}}, {"name": "StatefulPartitionedCall/sequential/MobilenetV3large/expanded_conv_13/squeeze_excite/Mul/mul", "op": "Mul", "input": ["StatefulPartitionedCall/sequential/MobilenetV3large/tf.math.multiply_23/Mul", "StatefulPartitionedCall/sequential/MobilenetV3large/multiply_16/mul"], "attr": {"T": {"type": "DT_FLOAT"}, "_grappler_ArithmeticOptimizer_MinimizeBroadcasts": {"b": true}}}, {"name": "StatefulPartitionedCall/sequential/MobilenetV3large/expanded_conv_13/project/BatchNorm/FusedBatchNormV3", "op": "_FusedConv2D", "input": ["StatefulPartitionedCall/sequential/MobilenetV3large/expanded_conv_13/squeeze_excite/Mul/mul", "StatefulPartitionedCall/sequential/MobilenetV3large/expanded_conv_13/project/Conv2D_weights", "StatefulPartitionedCall/sequential/MobilenetV3large/expanded_conv_13/project/Conv2D_bn_offset"], "device": "/device:CPU:0", "attr": {"data_format": {"s": "TkhXQw=="}, "fused_ops": {"list": {"s": ["Qmlhc0FkZA=="]}}, "filter_format": {"s": "SFdJTw=="}, "num_args": {"i": "1"}, "use_cudnn_on_gpu": {"b": true}, "padding": {"s": "U0FNRQ=="}, "TArgs": {"list": {"type": ["DT_FLOAT"]}}, "leakyrelu_alpha": {"f": 0.2}, "explicit_paddings": {"list": {}}, "dilations": {"list": {"i": ["1", "1", "1", "1"]}}, "T": {"type": "DT_FLOAT"}, "strides": {"list": {"i": ["1", "1", "1", "1"]}}, "epsilon": {"f": 0.0}, "num_host_args": {"i": "0"}}}, {"name": "StatefulPartitionedCall/sequential/MobilenetV3large/expanded_conv_13/Add/add", "op": "AddV2", "input": ["StatefulPartitionedCall/sequential/MobilenetV3large/expanded_conv_12/project/BatchNorm/FusedBatchNormV3", "StatefulPartitionedCall/sequential/MobilenetV3large/expanded_conv_13/project/BatchNorm/FusedBatchNormV3"], "attr": {"T": {"type": "DT_FLOAT"}}}, {"name": "StatefulPartitionedCall/sequential/MobilenetV3large/expanded_conv_14/expand/BatchNorm/FusedBatchNormV3", "op": "_FusedConv2D", "input": ["StatefulPartitionedCall/sequential/MobilenetV3large/expanded_conv_13/Add/add", "StatefulPartitionedCall/sequential/MobilenetV3large/expanded_conv_14/expand/Conv2D_weights", "StatefulPartitionedCall/sequential/MobilenetV3large/expanded_conv_14/expand/Conv2D_bn_offset"], "device": "/device:CPU:0", "attr": {"num_args": {"i": "1"}, "dilations": {"list": {"i": ["1", "1", "1", "1"]}}, "fused_ops": {"list": {"s": ["Qmlhc0FkZA=="]}}, "leakyrelu_alpha": {"f": 0.2}, "epsilon": {"f": 0.0}, "data_format": {"s": "TkhXQw=="}, "filter_format": {"s": "SFdJTw=="}, "T": {"type": "DT_FLOAT"}, "padding": {"s": "U0FNRQ=="}, "use_cudnn_on_gpu": {"b": true}, "strides": {"list": {"i": ["1", "1", "1", "1"]}}, "explicit_paddings": {"list": {}}, "TArgs": {"list": {"type": ["DT_FLOAT"]}}, "num_host_args": {"i": "0"}}}, {"name": "StatefulPartitionedCall/sequential/MobilenetV3large/tf.math.multiply_24/Mul", "op": "Mul", "input": ["StatefulPartitionedCall/sequential/MobilenetV3large/tf.math.multiply_24/Mul/y", "StatefulPartitionedCall/sequential/MobilenetV3large/expanded_conv_14/expand/BatchNorm/FusedBatchNormV3"], "attr": {"_grappler_ArithmeticOptimizer_MinimizeBroadcasts": {"b": true}, "T": {"type": "DT_FLOAT"}}}, {"name": "StatefulPartitionedCall/sequential/MobilenetV3large/tf.math.add_24/Add", "op": "AddV2", "input": ["StatefulPartitionedCall/sequential/MobilenetV3large/expanded_conv_14/expand/BatchNorm/FusedBatchNormV3", "unknown_266"], "attr": {"T": {"type": "DT_FLOAT"}}}, {"name": "StatefulPartitionedCall/sequential/MobilenetV3large/re_lu_35/Relu6", "op": "Relu6", "input": ["StatefulPartitionedCall/sequential/MobilenetV3large/tf.math.add_24/Add"], "attr": {"T": {"type": "DT_FLOAT"}}}, {"name": "StatefulPartitionedCall/sequential/MobilenetV3large/multiply_17/mul", "op": "Mul", "input": ["StatefulPartitionedCall/sequential/MobilenetV3large/tf.math.multiply_24/Mul", "StatefulPartitionedCall/sequential/MobilenetV3large/re_lu_35/Relu6"], "attr": {"_grappler_ArithmeticOptimizer_MinimizeBroadcasts": {"b": true}, "T": {"type": "DT_FLOAT"}}}, {"name": "StatefulPartitionedCall/sequential/MobilenetV3large/expanded_conv_14/depthwise/depthwise", "op": "FusedDepthwiseConv2dNative", "input": ["StatefulPartitionedCall/sequential/MobilenetV3large/multiply_17/mul", "StatefulPartitionedCall/sequential/MobilenetV3large/expanded_conv_14/depthwise/depthwise_weights", "StatefulPartitionedCall/sequential/MobilenetV3large/expanded_conv_14/depthwise/depthwise_bn_offset"], "attr": {"data_format": {"s": "TkhXQw=="}, "fused_ops": {"list": {"s": ["Qmlhc0FkZA=="]}}, "T": {"type": "DT_FLOAT"}, "strides": {"list": {"i": ["1", "1", "1", "1"]}}, "num_args": {"i": "1"}, "dilations": {"list": {"i": ["1", "1", "1", "1"]}}, "padding": {"s": "U0FNRQ=="}, "explicit_paddings": {"list": {}}}}, {"name": "StatefulPartitionedCall/sequential/MobilenetV3large/tf.math.multiply_25/Mul", "op": "Mul", "input": ["StatefulPartitionedCall/sequential/MobilenetV3large/tf.math.multiply_25/Mul/y", "StatefulPartitionedCall/sequential/MobilenetV3large/expanded_conv_14/depthwise/depthwise"], "attr": {"_grappler_ArithmeticOptimizer_MinimizeBroadcasts": {"b": true}, "T": {"type": "DT_FLOAT"}}}, {"name": "StatefulPartitionedCall/sequential/MobilenetV3large/tf.math.add_25/Add", "op": "AddV2", "input": ["StatefulPartitionedCall/sequential/MobilenetV3large/expanded_conv_14/depthwise/depthwise", "unknown_272"], "attr": {"T": {"type": "DT_FLOAT"}}}, {"name": "StatefulPartitionedCall/sequential/MobilenetV3large/re_lu_36/Relu6", "op": "Relu6", "input": ["StatefulPartitionedCall/sequential/MobilenetV3large/tf.math.add_25/Add"], "attr": {"T": {"type": "DT_FLOAT"}}}, {"name": "StatefulPartitionedCall/sequential/MobilenetV3large/multiply_18/mul", "op": "Mul", "input": ["StatefulPartitionedCall/sequential/MobilenetV3large/tf.math.multiply_25/Mul", "StatefulPartitionedCall/sequential/MobilenetV3large/re_lu_36/Relu6"], "attr": {"T": {"type": "DT_FLOAT"}, "_grappler_ArithmeticOptimizer_MinimizeBroadcasts": {"b": true}}}, {"name": "StatefulPartitionedCall/sequential/MobilenetV3large/expanded_conv_14/squeeze_excite/AvgPool/Mean", "op": "Mean", "input": ["StatefulPartitionedCall/sequential/MobilenetV3large/multiply_18/mul", "StatefulPartitionedCall/sequential/MobilenetV3large/expanded_conv_14/squeeze_excite/AvgPool/Mean/reduction_indices"], "attr": {"keep_dims": {"b": true}, "T": {"type": "DT_FLOAT"}, "Tidx": {"type": "DT_INT32"}}}, {"name": "StatefulPartitionedCall/sequential/MobilenetV3large/expanded_conv_14/squeeze_excite/Relu/Relu", "op": "_FusedConv2D", "input": ["StatefulPartitionedCall/sequential/MobilenetV3large/expanded_conv_14/squeeze_excite/AvgPool/Mean", "StatefulPartitionedCall/sequential/MobilenetV3large/expanded_conv_14/squeeze_excite/Conv/Conv2D/ReadVariableOp", "StatefulPartitionedCall/sequential/MobilenetV3large/expanded_conv_14/squeeze_excite/Conv/BiasAdd/ReadVariableOp"], "device": "/device:CPU:0", "attr": {"T": {"type": "DT_FLOAT"}, "TArgs": {"list": {"type": ["DT_FLOAT"]}}, "fused_ops": {"list": {"s": ["Qmlhc0FkZA==", "UmVsdQ=="]}}, "epsilon": {"f": 0.0}, "num_host_args": {"i": "0"}, "strides": {"list": {"i": ["1", "1", "1", "1"]}}, "data_format": {"s": "TkhXQw=="}, "num_args": {"i": "1"}, "filter_format": {"s": "SFdJTw=="}, "leakyrelu_alpha": {"f": 0.2}, "padding": {"s": "U0FNRQ=="}, "explicit_paddings": {"list": {}}, "use_cudnn_on_gpu": {"b": true}, "dilations": {"list": {"i": ["1", "1", "1", "1"]}}}}, {"name": "StatefulPartitionedCall/sequential/MobilenetV3large/expanded_conv_14/squeeze_excite/Conv_1/BiasAdd", "op": "_FusedConv2D", "input": ["StatefulPartitionedCall/sequential/MobilenetV3large/expanded_conv_14/squeeze_excite/Relu/Relu", "StatefulPartitionedCall/sequential/MobilenetV3large/expanded_conv_14/squeeze_excite/Conv_1/Conv2D/ReadVariableOp", "StatefulPartitionedCall/sequential/MobilenetV3large/expanded_conv_14/squeeze_excite/Conv_1/BiasAdd/ReadVariableOp"], "device": "/device:CPU:0", "attr": {"num_host_args": {"i": "0"}, "filter_format": {"s": "SFdJTw=="}, "epsilon": {"f": 0.0}, "padding": {"s": "U0FNRQ=="}, "data_format": {"s": "TkhXQw=="}, "dilations": {"list": {"i": ["1", "1", "1", "1"]}}, "strides": {"list": {"i": ["1", "1", "1", "1"]}}, "num_args": {"i": "1"}, "use_cudnn_on_gpu": {"b": true}, "T": {"type": "DT_FLOAT"}, "fused_ops": {"list": {"s": ["Qmlhc0FkZA=="]}}, "leakyrelu_alpha": {"f": 0.2}, "TArgs": {"list": {"type": ["DT_FLOAT"]}}, "explicit_paddings": {"list": {}}}}, {"name": "StatefulPartitionedCall/sequential/MobilenetV3large/tf.math.add_26/Add", "op": "AddV2", "input": ["StatefulPartitionedCall/sequential/MobilenetV3large/expanded_conv_14/squeeze_excite/Conv_1/BiasAdd", "unknown_277"], "attr": {"T": {"type": "DT_FLOAT"}}}, {"name": "StatefulPartitionedCall/sequential/MobilenetV3large/re_lu_37/Relu6", "op": "Relu6", "input": ["StatefulPartitionedCall/sequential/MobilenetV3large/tf.math.add_26/Add"], "attr": {"T": {"type": "DT_FLOAT"}}}, {"name": "StatefulPartitionedCall/sequential/MobilenetV3large/tf.math.multiply_26/Mul", "op": "Mul", "input": ["StatefulPartitionedCall/sequential/MobilenetV3large/tf.math.multiply_26/Mul/y", "StatefulPartitionedCall/sequential/MobilenetV3large/re_lu_37/Relu6"], "attr": {"T": {"type": "DT_FLOAT"}, "_grappler_ArithmeticOptimizer_MinimizeBroadcasts": {"b": true}}}, {"name": "StatefulPartitionedCall/sequential/MobilenetV3large/expanded_conv_14/squeeze_excite/Mul/mul", "op": "Mul", "input": ["StatefulPartitionedCall/sequential/MobilenetV3large/tf.math.multiply_26/Mul", "StatefulPartitionedCall/sequential/MobilenetV3large/multiply_18/mul"], "attr": {"_grappler_ArithmeticOptimizer_MinimizeBroadcasts": {"b": true}, "T": {"type": "DT_FLOAT"}}}, {"name": "StatefulPartitionedCall/sequential/MobilenetV3large/expanded_conv_14/project/BatchNorm/FusedBatchNormV3", "op": "_FusedConv2D", "input": ["StatefulPartitionedCall/sequential/MobilenetV3large/expanded_conv_14/squeeze_excite/Mul/mul", "StatefulPartitionedCall/sequential/MobilenetV3large/expanded_conv_14/project/Conv2D_weights", "StatefulPartitionedCall/sequential/MobilenetV3large/expanded_conv_14/project/Conv2D_bn_offset"], "device": "/device:CPU:0", "attr": {"dilations": {"list": {"i": ["1", "1", "1", "1"]}}, "padding": {"s": "U0FNRQ=="}, "leakyrelu_alpha": {"f": 0.2}, "epsilon": {"f": 0.0}, "TArgs": {"list": {"type": ["DT_FLOAT"]}}, "T": {"type": "DT_FLOAT"}, "data_format": {"s": "TkhXQw=="}, "fused_ops": {"list": {"s": ["Qmlhc0FkZA=="]}}, "strides": {"list": {"i": ["1", "1", "1", "1"]}}, "explicit_paddings": {"list": {}}, "num_args": {"i": "1"}, "filter_format": {"s": "SFdJTw=="}, "num_host_args": {"i": "0"}, "use_cudnn_on_gpu": {"b": true}}}, {"name": "StatefulPartitionedCall/sequential/MobilenetV3large/expanded_conv_14/Add/add", "op": "AddV2", "input": ["StatefulPartitionedCall/sequential/MobilenetV3large/expanded_conv_13/Add/add", "StatefulPartitionedCall/sequential/MobilenetV3large/expanded_conv_14/project/BatchNorm/FusedBatchNormV3"], "attr": {"T": {"type": "DT_FLOAT"}}}, {"name": "StatefulPartitionedCall/sequential/MobilenetV3large/Conv_1/BatchNorm/FusedBatchNormV3", "op": "_FusedConv2D", "input": ["StatefulPartitionedCall/sequential/MobilenetV3large/expanded_conv_14/Add/add", "StatefulPartitionedCall/sequential/MobilenetV3large/Conv_1/Conv2D_weights", "StatefulPartitionedCall/sequential/MobilenetV3large/Conv_1/Conv2D_bn_offset"], "device": "/device:CPU:0", "attr": {"T": {"type": "DT_FLOAT"}, "padding": {"s": "U0FNRQ=="}, "explicit_paddings": {"list": {}}, "TArgs": {"list": {"type": ["DT_FLOAT"]}}, "dilations": {"list": {"i": ["1", "1", "1", "1"]}}, "use_cudnn_on_gpu": {"b": true}, "leakyrelu_alpha": {"f": 0.2}, "filter_format": {"s": "SFdJTw=="}, "data_format": {"s": "TkhXQw=="}, "fused_ops": {"list": {"s": ["Qmlhc0FkZA=="]}}, "num_host_args": {"i": "0"}, "num_args": {"i": "1"}, "epsilon": {"f": 0.0}, "strides": {"list": {"i": ["1", "1", "1", "1"]}}}}, {"name": "StatefulPartitionedCall/sequential/MobilenetV3large/tf.math.multiply_27/Mul", "op": "Mul", "input": ["StatefulPartitionedCall/sequential/MobilenetV3large/tf.math.multiply_27/Mul/y", "StatefulPartitionedCall/sequential/MobilenetV3large/Conv_1/BatchNorm/FusedBatchNormV3"], "attr": {"T": {"type": "DT_FLOAT"}, "_grappler_ArithmeticOptimizer_MinimizeBroadcasts": {"b": true}}}, {"name": "StatefulPartitionedCall/sequential/MobilenetV3large/tf.math.add_27/Add", "op": "AddV2", "input": ["StatefulPartitionedCall/sequential/MobilenetV3large/Conv_1/BatchNorm/FusedBatchNormV3", "unknown_288"], "attr": {"T": {"type": "DT_FLOAT"}}}, {"name": "StatefulPartitionedCall/sequential/MobilenetV3large/re_lu_38/Relu6", "op": "Relu6", "input": ["StatefulPartitionedCall/sequential/MobilenetV3large/tf.math.add_27/Add"], "attr": {"T": {"type": "DT_FLOAT"}}}, {"name": "StatefulPartitionedCall/sequential/MobilenetV3large/multiply_19/mul", "op": "Mul", "input": ["StatefulPartitionedCall/sequential/MobilenetV3large/tf.math.multiply_27/Mul", "StatefulPartitionedCall/sequential/MobilenetV3large/re_lu_38/Relu6"], "attr": {"T": {"type": "DT_FLOAT"}, "_grappler_ArithmeticOptimizer_MinimizeBroadcasts": {"b": true}}}, {"name": "StatefulPartitionedCall/sequential/conv2d/Relu", "op": "_FusedConv2D", "input": ["StatefulPartitionedCall/sequential/MobilenetV3large/multiply_19/mul", "StatefulPartitionedCall/sequential/conv2d/Conv2D/ReadVariableOp", "StatefulPartitionedCall/sequential/conv2d/BiasAdd/ReadVariableOp"], "device": "/device:CPU:0", "attr": {"num_host_args": {"i": "0"}, "strides": {"list": {"i": ["1", "1", "1", "1"]}}, "padding": {"s": "VkFMSUQ="}, "use_cudnn_on_gpu": {"b": true}, "data_format": {"s": "TkhXQw=="}, "filter_format": {"s": "SFdJTw=="}, "epsilon": {"f": 0.0}, "leakyrelu_alpha": {"f": 0.2}, "fused_ops": {"list": {"s": ["Qmlhc0FkZA==", "UmVsdQ=="]}}, "TArgs": {"list": {"type": ["DT_FLOAT"]}}, "num_args": {"i": "1"}, "T": {"type": "DT_FLOAT"}, "dilations": {"list": {"i": ["1", "1", "1", "1"]}}, "explicit_paddings": {"list": {}}}}, {"name": "StatefulPartitionedCall/sequential/max_pooling2d/MaxPool", "op": "MaxPool", "input": ["StatefulPartitionedCall/sequential/conv2d/Relu"], "attr": {"strides": {"list": {"i": ["1", "2", "2", "1"]}}, "padding": {"s": "VkFMSUQ="}, "data_format": {"s": "TkhXQw=="}, "explicit_paddings": {"list": {}}, "T": {"type": "DT_FLOAT"}, "ksize": {"list": {"i": ["1", "2", "2", "1"]}}}}, {"name": "StatefulPartitionedCall/sequential/flatten/Reshape", "op": "Reshape", "input": ["StatefulPartitionedCall/sequential/max_pooling2d/MaxPool", "StatefulPartitionedCall/sequential/flatten/Const"], "attr": {"T": {"type": "DT_FLOAT"}, "Tshape": {"type": "DT_INT32"}}}, {"name": "StatefulPartitionedCall/sequential/dense/BiasAdd", "op": "_FusedMatMul", "input": ["StatefulPartitionedCall/sequential/flatten/Reshape", "StatefulPartitionedCall/sequential/dense/MatMul/ReadVariableOp", "StatefulPartitionedCall/sequential/dense/BiasAdd/ReadVariableOp"], "device": "/device:CPU:0", "attr": {"leakyrelu_alpha": {"f": 0.2}, "transpose_a": {"b": false}, "num_args": {"i": "1"}, "fused_ops": {"list": {"s": ["Qmlhc0FkZA=="]}}, "epsilon": {"f": 0.0}, "T": {"type": "DT_FLOAT"}, "transpose_b": {"b": false}}}, {"name": "StatefulPartitionedCall/sequential/dense/Softmax", "op": "Softmax", "input": ["StatefulPartitionedCall/sequential/dense/BiasAdd"], "attr": {"T": {"type": "DT_FLOAT"}}}, {"name": "Identity", "op": "Identity", "input": ["StatefulPartitionedCall/sequential/dense/Softmax"], "attr": {"T": {"type": "DT_FLOAT"}}}], "library": {}, "versions": {"producer": 1645}}, "weightsManifest": [{"paths": ["group1-shard1of4.bin", "group1-shard2of4.bin", "group1-shard3of4.bin", "group1-shard4of4.bin"], "weights": [{"name": "StatefulPartitionedCall/sequential/MobilenetV3large/tf.math.multiply_27/Mul/y", "shape": [], "dtype": "float32"}, {"name": "StatefulPartitionedCall/sequential/MobilenetV3large/tf.math.multiply_26/Mul/y", "shape": [], "dtype": "float32"}, {"name": "StatefulPartitionedCall/sequential/MobilenetV3large/expanded_conv_14/squeeze_excite/AvgPool/Mean/reduction_indices", "shape": [2], "dtype": "int32"}, {"name": "StatefulPartitionedCall/sequential/MobilenetV3large/expanded_conv_14/squeeze_excite/Conv/Conv2D/ReadVariableOp", "shape": [1, 1, 960, 240], "dtype": "float32"}, {"name": "StatefulPartitionedCall/sequential/MobilenetV3large/expanded_conv_14/squeeze_excite/Conv/BiasAdd/ReadVariableOp", "shape": [240], "dtype": "float32"}, {"name": "StatefulPartitionedCall/sequential/MobilenetV3large/expanded_conv_14/squeeze_excite/Conv_1/Conv2D/ReadVariableOp", "shape": [1, 1, 240, 960], "dtype": "float32"}, {"name": "StatefulPartitionedCall/sequential/MobilenetV3large/expanded_conv_14/squeeze_excite/Conv_1/BiasAdd/ReadVariableOp", "shape": [960], "dtype": "float32"}, {"name": "unknown_277", "shape": [], "dtype": "float32"}, {"name": "StatefulPartitionedCall/sequential/MobilenetV3large/tf.math.multiply_25/Mul/y", "shape": [], "dtype": "float32"}, {"name": "StatefulPartitionedCall/sequential/MobilenetV3large/tf.math.multiply_24/Mul/y", "shape": [], "dtype": "float32"}, {"name": "StatefulPartitionedCall/sequential/MobilenetV3large/tf.math.multiply_23/Mul/y", "shape": [], "dtype": "float32"}, {"name": "StatefulPartitionedCall/sequential/MobilenetV3large/expanded_conv_13/squeeze_excite/AvgPool/Mean/reduction_indices", "shape": [2], "dtype": "int32"}, {"name": "StatefulPartitionedCall/sequential/MobilenetV3large/expanded_conv_13/squeeze_excite/Conv/Conv2D/ReadVariableOp", "shape": [1, 1, 960, 240], "dtype": "float32"}, {"name": "StatefulPartitionedCall/sequential/MobilenetV3large/expanded_conv_13/squeeze_excite/Conv/BiasAdd/ReadVariableOp", "shape": [240], "dtype": "float32"}, {"name": "StatefulPartitionedCall/sequential/MobilenetV3large/expanded_conv_13/squeeze_excite/Conv_1/Conv2D/ReadVariableOp", "shape": [1, 1, 240, 960], "dtype": "float32"}, {"name": "StatefulPartitionedCall/sequential/MobilenetV3large/expanded_conv_13/squeeze_excite/Conv_1/BiasAdd/ReadVariableOp", "shape": [960], "dtype": "float32"}, {"name": "unknown_255", "shape": [], "dtype": "float32"}, {"name": "StatefulPartitionedCall/sequential/MobilenetV3large/tf.math.multiply_22/Mul/y", "shape": [], "dtype": "float32"}, {"name": "StatefulPartitionedCall/sequential/MobilenetV3large/tf.math.multiply_21/Mul/y", "shape": [], "dtype": "float32"}, {"name": "StatefulPartitionedCall/sequential/MobilenetV3large/tf.math.multiply_20/Mul/y", "shape": [], "dtype": "float32"}, {"name": "StatefulPartitionedCall/sequential/MobilenetV3large/expanded_conv_12/squeeze_excite/AvgPool/Mean/reduction_indices", "shape": [2], "dtype": "int32"}, {"name": "StatefulPartitionedCall/sequential/MobilenetV3large/expanded_conv_12/squeeze_excite/Conv/Conv2D/ReadVariableOp", "shape": [1, 1, 672, 168], "dtype": "float32"}, {"name": "StatefulPartitionedCall/sequential/MobilenetV3large/expanded_conv_12/squeeze_excite/Conv/BiasAdd/ReadVariableOp", "shape": [168], "dtype": "float32"}, {"name": "StatefulPartitionedCall/sequential/MobilenetV3large/expanded_conv_12/squeeze_excite/Conv_1/Conv2D/ReadVariableOp", "shape": [1, 1, 168, 672], "dtype": "float32"}, {"name": "StatefulPartitionedCall/sequential/MobilenetV3large/expanded_conv_12/squeeze_excite/Conv_1/BiasAdd/ReadVariableOp", "shape": [672], "dtype": "float32"}, {"name": "unknown_233", "shape": [], "dtype": "float32"}, {"name": "StatefulPartitionedCall/sequential/MobilenetV3large/tf.math.multiply_19/Mul/y", "shape": [], "dtype": "float32"}, {"name": "StatefulPartitionedCall/sequential/MobilenetV3large/tf.math.multiply_18/Mul/y", "shape": [], "dtype": "float32"}, {"name": "StatefulPartitionedCall/sequential/MobilenetV3large/tf.math.multiply_17/Mul/y", "shape": [], "dtype": "float32"}, {"name": "StatefulPartitionedCall/sequential/MobilenetV3large/expanded_conv_11/squeeze_excite/AvgPool/Mean/reduction_indices", "shape": [2], "dtype": "int32"}, {"name": "StatefulPartitionedCall/sequential/MobilenetV3large/expanded_conv_11/squeeze_excite/Conv/Conv2D/ReadVariableOp", "shape": [1, 1, 672, 168], "dtype": "float32"}, {"name": "StatefulPartitionedCall/sequential/MobilenetV3large/expanded_conv_11/squeeze_excite/Conv/BiasAdd/ReadVariableOp", "shape": [168], "dtype": "float32"}, {"name": "StatefulPartitionedCall/sequential/MobilenetV3large/expanded_conv_11/squeeze_excite/Conv_1/Conv2D/ReadVariableOp", "shape": [1, 1, 168, 672], "dtype": "float32"}, {"name": "StatefulPartitionedCall/sequential/MobilenetV3large/expanded_conv_11/squeeze_excite/Conv_1/BiasAdd/ReadVariableOp", "shape": [672], "dtype": "float32"}, {"name": "unknown_211", "shape": [], "dtype": "float32"}, {"name": "StatefulPartitionedCall/sequential/MobilenetV3large/tf.math.multiply_16/Mul/y", "shape": [], "dtype": "float32"}, {"name": "StatefulPartitionedCall/sequential/MobilenetV3large/tf.math.multiply_15/Mul/y", "shape": [], "dtype": "float32"}, {"name": "StatefulPartitionedCall/sequential/MobilenetV3large/tf.math.multiply_14/Mul/y", "shape": [], "dtype": "float32"}, {"name": "StatefulPartitionedCall/sequential/MobilenetV3large/expanded_conv_10/squeeze_excite/AvgPool/Mean/reduction_indices", "shape": [2], "dtype": "int32"}, {"name": "StatefulPartitionedCall/sequential/MobilenetV3large/expanded_conv_10/squeeze_excite/Conv/Conv2D/ReadVariableOp", "shape": [1, 1, 480, 120], "dtype": "float32"}, {"name": "StatefulPartitionedCall/sequential/MobilenetV3large/expanded_conv_10/squeeze_excite/Conv/BiasAdd/ReadVariableOp", "shape": [120], "dtype": "float32"}, {"name": "StatefulPartitionedCall/sequential/MobilenetV3large/expanded_conv_10/squeeze_excite/Conv_1/Conv2D/ReadVariableOp", "shape": [1, 1, 120, 480], "dtype": "float32"}, {"name": "StatefulPartitionedCall/sequential/MobilenetV3large/expanded_conv_10/squeeze_excite/Conv_1/BiasAdd/ReadVariableOp", "shape": [480], "dtype": "float32"}, {"name": "unknown_189", "shape": [], "dtype": "float32"}, {"name": "StatefulPartitionedCall/sequential/MobilenetV3large/tf.math.multiply_13/Mul/y", "shape": [], "dtype": "float32"}, {"name": "StatefulPartitionedCall/sequential/MobilenetV3large/tf.math.multiply_12/Mul/y", "shape": [], "dtype": "float32"}, {"name": "StatefulPartitionedCall/sequential/MobilenetV3large/tf.math.multiply_11/Mul/y", "shape": [], "dtype": "float32"}, {"name": "StatefulPartitionedCall/sequential/MobilenetV3large/tf.math.multiply_10/Mul/y", "shape": [], "dtype": "float32"}, {"name": "StatefulPartitionedCall/sequential/MobilenetV3large/tf.math.multiply_9/Mul/y", "shape": [], "dtype": "float32"}, {"name": "StatefulPartitionedCall/sequential/MobilenetV3large/tf.math.multiply_8/Mul/y", "shape": [], "dtype": "float32"}, {"name": "StatefulPartitionedCall/sequential/MobilenetV3large/tf.math.multiply_7/Mul/y", "shape": [], "dtype": "float32"}, {"name": "StatefulPartitionedCall/sequential/MobilenetV3large/tf.math.multiply_6/Mul/y", "shape": [], "dtype": "float32"}, {"name": "StatefulPartitionedCall/sequential/MobilenetV3large/tf.math.multiply_5/Mul/y", "shape": [], "dtype": "float32"}, {"name": "StatefulPartitionedCall/sequential/MobilenetV3large/tf.math.multiply_4/Mul/y", "shape": [], "dtype": "float32"}, {"name": "StatefulPartitionedCall/sequential/MobilenetV3large/tf.math.multiply_3/Mul/y", "shape": [], "dtype": "float32"}, {"name": "StatefulPartitionedCall/sequential/MobilenetV3large/expanded_conv_5/squeeze_excite/AvgPool/Mean/reduction_indices", "shape": [2], "dtype": "int32"}, {"name": "StatefulPartitionedCall/sequential/MobilenetV3large/expanded_conv_5/squeeze_excite/Conv/Conv2D/ReadVariableOp", "shape": [1, 1, 120, 32], "dtype": "float32"}, {"name": "StatefulPartitionedCall/sequential/MobilenetV3large/expanded_conv_5/squeeze_excite/Conv/BiasAdd/ReadVariableOp", "shape": [32], "dtype": "float32"}, {"name": "StatefulPartitionedCall/sequential/MobilenetV3large/expanded_conv_5/squeeze_excite/Conv_1/Conv2D/ReadVariableOp", "shape": [1, 1, 32, 120], "dtype": "float32"}, {"name": "StatefulPartitionedCall/sequential/MobilenetV3large/expanded_conv_5/squeeze_excite/Conv_1/BiasAdd/ReadVariableOp", "shape": [120], "dtype": "float32"}, {"name": "unknown_99", "shape": [], "dtype": "float32"}, {"name": "StatefulPartitionedCall/sequential/MobilenetV3large/tf.math.multiply_2/Mul/y", "shape": [], "dtype": "float32"}, {"name": "StatefulPartitionedCall/sequential/MobilenetV3large/expanded_conv_4/squeeze_excite/AvgPool/Mean/reduction_indices", "shape": [2], "dtype": "int32"}, {"name": "StatefulPartitionedCall/sequential/MobilenetV3large/expanded_conv_4/squeeze_excite/Conv/Conv2D/ReadVariableOp", "shape": [1, 1, 120, 32], "dtype": "float32"}, {"name": "StatefulPartitionedCall/sequential/MobilenetV3large/expanded_conv_4/squeeze_excite/Conv/BiasAdd/ReadVariableOp", "shape": [32], "dtype": "float32"}, {"name": "StatefulPartitionedCall/sequential/MobilenetV3large/expanded_conv_4/squeeze_excite/Conv_1/Conv2D/ReadVariableOp", "shape": [1, 1, 32, 120], "dtype": "float32"}, {"name": "StatefulPartitionedCall/sequential/MobilenetV3large/expanded_conv_4/squeeze_excite/Conv_1/BiasAdd/ReadVariableOp", "shape": [120], "dtype": "float32"}, {"name": "unknown_79", "shape": [], "dtype": "float32"}, {"name": "StatefulPartitionedCall/sequential/MobilenetV3large/tf.math.multiply_1/Mul/y", "shape": [], "dtype": "float32"}, {"name": "StatefulPartitionedCall/sequential/MobilenetV3large/expanded_conv_3/squeeze_excite/AvgPool/Mean/reduction_indices", "shape": [2], "dtype": "int32"}, {"name": "StatefulPartitionedCall/sequential/MobilenetV3large/expanded_conv_3/squeeze_excite/Conv/Conv2D/ReadVariableOp", "shape": [1, 1, 72, 24], "dtype": "float32"}, {"name": "StatefulPartitionedCall/sequential/MobilenetV3large/expanded_conv_3/squeeze_excite/Conv/BiasAdd/ReadVariableOp", "shape": [24], "dtype": "float32"}, {"name": "StatefulPartitionedCall/sequential/MobilenetV3large/expanded_conv_3/squeeze_excite/Conv_1/Conv2D/ReadVariableOp", "shape": [1, 1, 24, 72], "dtype": "float32"}, {"name": "StatefulPartitionedCall/sequential/MobilenetV3large/expanded_conv_3/squeeze_excite/Conv_1/BiasAdd/ReadVariableOp", "shape": [72], "dtype": "float32"}, {"name": "unknown_59", "shape": [], "dtype": "float32"}, {"name": "StatefulPartitionedCall/sequential/MobilenetV3large/tf.math.multiply/Mul/y", "shape": [], "dtype": "float32"}, {"name": "StatefulPartitionedCall/sequential/MobilenetV3large/rescaling/Cast/x", "shape": [], "dtype": "float32"}, {"name": "StatefulPartitionedCall/sequential/MobilenetV3large/rescaling/Cast_1/x", "shape": [], "dtype": "float32"}, {"name": "unknown_4", "shape": [], "dtype": "float32"}, {"name": "StatefulPartitionedCall/sequential/MobilenetV3large/expanded_conv_1/depthwise/pad/Pad/paddings", "shape": [4, 2], "dtype": "int32"}, {"name": "StatefulPartitionedCall/sequential/MobilenetV3large/expanded_conv_3/depthwise/pad/Pad/paddings", "shape": [4, 2], "dtype": "int32"}, {"name": "unknown_110", "shape": [], "dtype": "float32"}, {"name": "StatefulPartitionedCall/sequential/MobilenetV3large/expanded_conv_6/depthwise/pad/Pad/paddings", "shape": [4, 2], "dtype": "int32"}, {"name": "unknown_116", "shape": [], "dtype": "float32"}, {"name": "unknown_127", "shape": [], "dtype": "float32"}, {"name": "unknown_133", "shape": [], "dtype": "float32"}, {"name": "unknown_144", "shape": [], "dtype": "float32"}, {"name": "unknown_150", "shape": [], "dtype": "float32"}, {"name": "unknown_161", "shape": [], "dtype": "float32"}, {"name": "unknown_167", "shape": [], "dtype": "float32"}, {"name": "unknown_178", "shape": [], "dtype": "float32"}, {"name": "unknown_184", "shape": [], "dtype": "float32"}, {"name": "unknown_200", "shape": [], "dtype": "float32"}, {"name": "unknown_206", "shape": [], "dtype": "float32"}, {"name": "unknown_222", "shape": [], "dtype": "float32"}, {"name": "StatefulPartitionedCall/sequential/MobilenetV3large/expanded_conv_12/depthwise/pad/Pad/paddings", "shape": [4, 2], "dtype": "int32"}, {"name": "unknown_228", "shape": [], "dtype": "float32"}, {"name": "unknown_244", "shape": [], "dtype": "float32"}, {"name": "unknown_250", "shape": [], "dtype": "float32"}, {"name": "unknown_266", "shape": [], "dtype": "float32"}, {"name": "unknown_272", "shape": [], "dtype": "float32"}, {"name": "unknown_288", "shape": [], "dtype": "float32"}, {"name": "StatefulPartitionedCall/sequential/conv2d/Conv2D/ReadVariableOp", "shape": [3, 3, 960, 64], "dtype": "float32"}, {"name": "StatefulPartitionedCall/sequential/conv2d/BiasAdd/ReadVariableOp", "shape": [64], "dtype": "float32"}, {"name": "StatefulPartitionedCall/sequential/flatten/Const", "shape": [2], "dtype": "int32"}, {"name": "StatefulPartitionedCall/sequential/dense/MatMul/ReadVariableOp", "shape": [256, 14], "dtype": "float32"}, {"name": "StatefulPartitionedCall/sequential/dense/BiasAdd/ReadVariableOp", "shape": [14], "dtype": "float32"}, {"name": "StatefulPartitionedCall/sequential/MobilenetV3large/Conv/Conv2D_weights", "shape": [3, 3, 3, 16], "dtype": "float32"}, {"name": "StatefulPartitionedCall/sequential/MobilenetV3large/Conv/Conv2D_bn_offset", "shape": [16], "dtype": "float32"}, {"name": "StatefulPartitionedCall/sequential/MobilenetV3large/expanded_conv/depthwise/depthwise_weights", "shape": [3, 3, 16, 1], "dtype": "float32"}, {"name": "StatefulPartitionedCall/sequential/MobilenetV3large/expanded_conv/depthwise/depthwise_bn_offset", "shape": [16], "dtype": "float32"}, {"name": "StatefulPartitionedCall/sequential/MobilenetV3large/expanded_conv/project/Conv2D_weights", "shape": [1, 1, 16, 16], "dtype": "float32"}, {"name": "StatefulPartitionedCall/sequential/MobilenetV3large/expanded_conv/project/Conv2D_bn_offset", "shape": [16], "dtype": "float32"}, {"name": "StatefulPartitionedCall/sequential/MobilenetV3large/expanded_conv_1/expand/Conv2D_weights", "shape": [1, 1, 16, 64], "dtype": "float32"}, {"name": "StatefulPartitionedCall/sequential/MobilenetV3large/expanded_conv_1/expand/Conv2D_bn_offset", "shape": [64], "dtype": "float32"}, {"name": "StatefulPartitionedCall/sequential/MobilenetV3large/expanded_conv_1/depthwise/depthwise_weights", "shape": [3, 3, 64, 1], "dtype": "float32"}, {"name": "StatefulPartitionedCall/sequential/MobilenetV3large/expanded_conv_1/depthwise/depthwise_bn_offset", "shape": [64], "dtype": "float32"}, {"name": "StatefulPartitionedCall/sequential/MobilenetV3large/expanded_conv_1/project/Conv2D_weights", "shape": [1, 1, 64, 24], "dtype": "float32"}, {"name": "StatefulPartitionedCall/sequential/MobilenetV3large/expanded_conv_1/project/Conv2D_bn_offset", "shape": [24], "dtype": "float32"}, {"name": "StatefulPartitionedCall/sequential/MobilenetV3large/expanded_conv_2/expand/Conv2D_weights", "shape": [1, 1, 24, 72], "dtype": "float32"}, {"name": "StatefulPartitionedCall/sequential/MobilenetV3large/expanded_conv_2/expand/Conv2D_bn_offset", "shape": [72], "dtype": "float32"}, {"name": "StatefulPartitionedCall/sequential/MobilenetV3large/expanded_conv_2/depthwise/depthwise_weights", "shape": [3, 3, 72, 1], "dtype": "float32"}, {"name": "StatefulPartitionedCall/sequential/MobilenetV3large/expanded_conv_2/depthwise/depthwise_bn_offset", "shape": [72], "dtype": "float32"}, {"name": "StatefulPartitionedCall/sequential/MobilenetV3large/expanded_conv_2/project/Conv2D_weights", "shape": [1, 1, 72, 24], "dtype": "float32"}, {"name": "StatefulPartitionedCall/sequential/MobilenetV3large/expanded_conv_2/project/Conv2D_bn_offset", "shape": [24], "dtype": "float32"}, {"name": "StatefulPartitionedCall/sequential/MobilenetV3large/expanded_conv_3/expand/Conv2D_weights", "shape": [1, 1, 24, 72], "dtype": "float32"}, {"name": "StatefulPartitionedCall/sequential/MobilenetV3large/expanded_conv_3/expand/Conv2D_bn_offset", "shape": [72], "dtype": "float32"}, {"name": "StatefulPartitionedCall/sequential/MobilenetV3large/expanded_conv_3/depthwise/depthwise_weights", "shape": [5, 5, 72, 1], "dtype": "float32"}, {"name": "StatefulPartitionedCall/sequential/MobilenetV3large/expanded_conv_3/depthwise/depthwise_bn_offset", "shape": [72], "dtype": "float32"}, {"name": "StatefulPartitionedCall/sequential/MobilenetV3large/expanded_conv_13/project/Conv2D_weights", "shape": [1, 1, 960, 160], "dtype": "float32"}, {"name": "StatefulPartitionedCall/sequential/MobilenetV3large/expanded_conv_13/project/Conv2D_bn_offset", "shape": [160], "dtype": "float32"}, {"name": "StatefulPartitionedCall/sequential/MobilenetV3large/expanded_conv_3/project/Conv2D_weights", "shape": [1, 1, 72, 40], "dtype": "float32"}, {"name": "StatefulPartitionedCall/sequential/MobilenetV3large/expanded_conv_3/project/Conv2D_bn_offset", "shape": [40], "dtype": "float32"}, {"name": "StatefulPartitionedCall/sequential/MobilenetV3large/expanded_conv_4/expand/Conv2D_weights", "shape": [1, 1, 40, 120], "dtype": "float32"}, {"name": "StatefulPartitionedCall/sequential/MobilenetV3large/expanded_conv_4/expand/Conv2D_bn_offset", "shape": [120], "dtype": "float32"}, {"name": "StatefulPartitionedCall/sequential/MobilenetV3large/expanded_conv_14/expand/Conv2D_weights", "shape": [1, 1, 160, 960], "dtype": "float32"}, {"name": "StatefulPartitionedCall/sequential/MobilenetV3large/expanded_conv_4/depthwise/depthwise_weights", "shape": [5, 5, 120, 1], "dtype": "float32"}, {"name": "StatefulPartitionedCall/sequential/MobilenetV3large/expanded_conv_4/depthwise/depthwise_bn_offset", "shape": [120], "dtype": "float32"}, {"name": "StatefulPartitionedCall/sequential/MobilenetV3large/expanded_conv_14/expand/Conv2D_bn_offset", "shape": [960], "dtype": "float32"}, {"name": "StatefulPartitionedCall/sequential/MobilenetV3large/expanded_conv_4/project/Conv2D_weights", "shape": [1, 1, 120, 40], "dtype": "float32"}, {"name": "StatefulPartitionedCall/sequential/MobilenetV3large/expanded_conv_4/project/Conv2D_bn_offset", "shape": [40], "dtype": "float32"}, {"name": "StatefulPartitionedCall/sequential/MobilenetV3large/expanded_conv_5/expand/Conv2D_weights", "shape": [1, 1, 40, 120], "dtype": "float32"}, {"name": "StatefulPartitionedCall/sequential/MobilenetV3large/expanded_conv_5/expand/Conv2D_bn_offset", "shape": [120], "dtype": "float32"}, {"name": "StatefulPartitionedCall/sequential/MobilenetV3large/expanded_conv_5/depthwise/depthwise_weights", "shape": [5, 5, 120, 1], "dtype": "float32"}, {"name": "StatefulPartitionedCall/sequential/MobilenetV3large/expanded_conv_5/depthwise/depthwise_bn_offset", "shape": [120], "dtype": "float32"}, {"name": "StatefulPartitionedCall/sequential/MobilenetV3large/expanded_conv_14/depthwise/depthwise_weights", "shape": [5, 5, 960, 1], "dtype": "float32"}, {"name": "StatefulPartitionedCall/sequential/MobilenetV3large/expanded_conv_5/project/Conv2D_weights", "shape": [1, 1, 120, 40], "dtype": "float32"}, {"name": "StatefulPartitionedCall/sequential/MobilenetV3large/expanded_conv_14/depthwise/depthwise_bn_offset", "shape": [960], "dtype": "float32"}, {"name": "StatefulPartitionedCall/sequential/MobilenetV3large/expanded_conv_5/project/Conv2D_bn_offset", "shape": [40], "dtype": "float32"}, {"name": "StatefulPartitionedCall/sequential/MobilenetV3large/expanded_conv_6/expand/Conv2D_weights", "shape": [1, 1, 40, 240], "dtype": "float32"}, {"name": "StatefulPartitionedCall/sequential/MobilenetV3large/expanded_conv_6/expand/Conv2D_bn_offset", "shape": [240], "dtype": "float32"}, {"name": "StatefulPartitionedCall/sequential/MobilenetV3large/expanded_conv_6/depthwise/depthwise_weights", "shape": [3, 3, 240, 1], "dtype": "float32"}, {"name": "StatefulPartitionedCall/sequential/MobilenetV3large/expanded_conv_6/depthwise/depthwise_bn_offset", "shape": [240], "dtype": "float32"}, {"name": "StatefulPartitionedCall/sequential/MobilenetV3large/expanded_conv_6/project/Conv2D_weights", "shape": [1, 1, 240, 80], "dtype": "float32"}, {"name": "StatefulPartitionedCall/sequential/MobilenetV3large/expanded_conv_6/project/Conv2D_bn_offset", "shape": [80], "dtype": "float32"}, {"name": "StatefulPartitionedCall/sequential/MobilenetV3large/expanded_conv_7/expand/Conv2D_weights", "shape": [1, 1, 80, 200], "dtype": "float32"}, {"name": "StatefulPartitionedCall/sequential/MobilenetV3large/expanded_conv_7/expand/Conv2D_bn_offset", "shape": [200], "dtype": "float32"}, {"name": "StatefulPartitionedCall/sequential/MobilenetV3large/expanded_conv_7/depthwise/depthwise_weights", "shape": [3, 3, 200, 1], "dtype": "float32"}, {"name": "StatefulPartitionedCall/sequential/MobilenetV3large/expanded_conv_7/depthwise/depthwise_bn_offset", "shape": [200], "dtype": "float32"}, {"name": "StatefulPartitionedCall/sequential/MobilenetV3large/expanded_conv_7/project/Conv2D_weights", "shape": [1, 1, 200, 80], "dtype": "float32"}, {"name": "StatefulPartitionedCall/sequential/MobilenetV3large/expanded_conv_7/project/Conv2D_bn_offset", "shape": [80], "dtype": "float32"}, {"name": "StatefulPartitionedCall/sequential/MobilenetV3large/expanded_conv_8/expand/Conv2D_weights", "shape": [1, 1, 80, 184], "dtype": "float32"}, {"name": "StatefulPartitionedCall/sequential/MobilenetV3large/expanded_conv_8/expand/Conv2D_bn_offset", "shape": [184], "dtype": "float32"}, {"name": "StatefulPartitionedCall/sequential/MobilenetV3large/expanded_conv_8/depthwise/depthwise_weights", "shape": [3, 3, 184, 1], "dtype": "float32"}, {"name": "StatefulPartitionedCall/sequential/MobilenetV3large/expanded_conv_8/depthwise/depthwise_bn_offset", "shape": [184], "dtype": "float32"}, {"name": "StatefulPartitionedCall/sequential/MobilenetV3large/expanded_conv_8/project/Conv2D_weights", "shape": [1, 1, 184, 80], "dtype": "float32"}, {"name": "StatefulPartitionedCall/sequential/MobilenetV3large/expanded_conv_8/project/Conv2D_bn_offset", "shape": [80], "dtype": "float32"}, {"name": "StatefulPartitionedCall/sequential/MobilenetV3large/expanded_conv_9/expand/Conv2D_weights", "shape": [1, 1, 80, 184], "dtype": "float32"}, {"name": "StatefulPartitionedCall/sequential/MobilenetV3large/expanded_conv_9/expand/Conv2D_bn_offset", "shape": [184], "dtype": "float32"}, {"name": "StatefulPartitionedCall/sequential/MobilenetV3large/expanded_conv_9/depthwise/depthwise_weights", "shape": [3, 3, 184, 1], "dtype": "float32"}, {"name": "StatefulPartitionedCall/sequential/MobilenetV3large/expanded_conv_9/depthwise/depthwise_bn_offset", "shape": [184], "dtype": "float32"}, {"name": "StatefulPartitionedCall/sequential/MobilenetV3large/expanded_conv_9/project/Conv2D_weights", "shape": [1, 1, 184, 80], "dtype": "float32"}, {"name": "StatefulPartitionedCall/sequential/MobilenetV3large/expanded_conv_9/project/Conv2D_bn_offset", "shape": [80], "dtype": "float32"}, {"name": "StatefulPartitionedCall/sequential/MobilenetV3large/expanded_conv_10/expand/Conv2D_weights", "shape": [1, 1, 80, 480], "dtype": "float32"}, {"name": "StatefulPartitionedCall/sequential/MobilenetV3large/expanded_conv_10/expand/Conv2D_bn_offset", "shape": [480], "dtype": "float32"}, {"name": "StatefulPartitionedCall/sequential/MobilenetV3large/expanded_conv_10/depthwise/depthwise_weights", "shape": [3, 3, 480, 1], "dtype": "float32"}, {"name": "StatefulPartitionedCall/sequential/MobilenetV3large/expanded_conv_10/depthwise/depthwise_bn_offset", "shape": [480], "dtype": "float32"}, {"name": "StatefulPartitionedCall/sequential/MobilenetV3large/expanded_conv_10/project/Conv2D_weights", "shape": [1, 1, 480, 112], "dtype": "float32"}, {"name": "StatefulPartitionedCall/sequential/MobilenetV3large/expanded_conv_10/project/Conv2D_bn_offset", "shape": [112], "dtype": "float32"}, {"name": "StatefulPartitionedCall/sequential/MobilenetV3large/expanded_conv_11/expand/Conv2D_weights", "shape": [1, 1, 112, 672], "dtype": "float32"}, {"name": "StatefulPartitionedCall/sequential/MobilenetV3large/expanded_conv_11/expand/Conv2D_bn_offset", "shape": [672], "dtype": "float32"}, {"name": "StatefulPartitionedCall/sequential/MobilenetV3large/expanded_conv_11/depthwise/depthwise_weights", "shape": [3, 3, 672, 1], "dtype": "float32"}, {"name": "StatefulPartitionedCall/sequential/MobilenetV3large/expanded_conv_11/depthwise/depthwise_bn_offset", "shape": [672], "dtype": "float32"}, {"name": "StatefulPartitionedCall/sequential/MobilenetV3large/expanded_conv_14/project/Conv2D_weights", "shape": [1, 1, 960, 160], "dtype": "float32"}, {"name": "StatefulPartitionedCall/sequential/MobilenetV3large/expanded_conv_11/project/Conv2D_weights", "shape": [1, 1, 672, 112], "dtype": "float32"}, {"name": "StatefulPartitionedCall/sequential/MobilenetV3large/expanded_conv_14/project/Conv2D_bn_offset", "shape": [160], "dtype": "float32"}, {"name": "StatefulPartitionedCall/sequential/MobilenetV3large/expanded_conv_11/project/Conv2D_bn_offset", "shape": [112], "dtype": "float32"}, {"name": "StatefulPartitionedCall/sequential/MobilenetV3large/expanded_conv_12/expand/Conv2D_weights", "shape": [1, 1, 112, 672], "dtype": "float32"}, {"name": "StatefulPartitionedCall/sequential/MobilenetV3large/expanded_conv_12/expand/Conv2D_bn_offset", "shape": [672], "dtype": "float32"}, {"name": "StatefulPartitionedCall/sequential/MobilenetV3large/expanded_conv_12/depthwise/depthwise_weights", "shape": [5, 5, 672, 1], "dtype": "float32"}, {"name": "StatefulPartitionedCall/sequential/MobilenetV3large/expanded_conv_12/depthwise/depthwise_bn_offset", "shape": [672], "dtype": "float32"}, {"name": "StatefulPartitionedCall/sequential/MobilenetV3large/Conv_1/Conv2D_weights", "shape": [1, 1, 160, 960], "dtype": "float32"}, {"name": "StatefulPartitionedCall/sequential/MobilenetV3large/expanded_conv_12/project/Conv2D_weights", "shape": [1, 1, 672, 160], "dtype": "float32"}, {"name": "StatefulPartitionedCall/sequential/MobilenetV3large/Conv_1/Conv2D_bn_offset", "shape": [960], "dtype": "float32"}, {"name": "StatefulPartitionedCall/sequential/MobilenetV3large/expanded_conv_12/project/Conv2D_bn_offset", "shape": [160], "dtype": "float32"}, {"name": "StatefulPartitionedCall/sequential/MobilenetV3large/expanded_conv_13/expand/Conv2D_weights", "shape": [1, 1, 160, 960], "dtype": "float32"}, {"name": "StatefulPartitionedCall/sequential/MobilenetV3large/expanded_conv_13/expand/Conv2D_bn_offset", "shape": [960], "dtype": "float32"}, {"name": "StatefulPartitionedCall/sequential/MobilenetV3large/expanded_conv_13/depthwise/depthwise_weights", "shape": [5, 5, 960, 1], "dtype": "float32"}, {"name": "StatefulPartitionedCall/sequential/MobilenetV3large/expanded_conv_13/depthwise/depthwise_bn_offset", "shape": [960], "dtype": "float32"}]}]}